{"format": "graph-model", "generatedBy": "2.8.0", "convertedBy": "TensorFlow.js Converter v3.13.0", "signature": {"inputs": {"input_ids:0": {"name": "input_ids:0", "dtype": "DT_INT32", "tensorShape": {"dim": [{"size": "-1"}, {"size": "512"}]}}, "attention_mask:0": {"name": "attention_mask:0", "dtype": "DT_INT32", "tensorShape": {"dim": [{"size": "-1"}, {"size": "512"}]}}}, "outputs": {"logits": {"name": "Identity:0", "dtype": "DT_FLOAT", "tensorShape": {"dim": [{"size": "-1"}, {"size": "512"}, {"size": "30522"}]}}}}, "modelTopology": {"node": [{"name": "StatefulPartitionedCall/predictions___cls/predictions/transform/LayerNorm/batchnorm/ReadVariableOp", "op": "Const", "attr": {"value": {"tensor": {"dtype": "DT_FLOAT", "tensorShape": {"dim": [{"size": "512"}]}}}, "dtype": {"type": "DT_FLOAT"}}}, {"name": "StatefulPartitionedCall/predictions___cls/predictions/transform/dense/Tensordot/Const", "op": "Const", "attr": {"dtype": {"type": "DT_INT32"}, "value": {"tensor": {"dtype": "DT_INT32", "tensorShape": {"dim": [{"size": "1"}]}}}}}, {"name": "StatefulPartitionedCall/predictions___cls/predictions/transform/dense/Tensordot/axes", "op": "Const", "attr": {"dtype": {"type": "DT_INT32"}, "value": {"tensor": {"dtype": "DT_INT32", "tensorShape": {"dim": [{"size": "1"}]}}}}}, {"name": "StatefulPartitionedCall/predictions___cls/predictions/transform/dense/Tensordot/GatherV2_1/axis", "op": "Const", "attr": {"value": {"tensor": {"dtype": "DT_INT32", "tensorShape": {}}}, "dtype": {"type": "DT_INT32"}}}, {"name": "StatefulPartitionedCall/predictions___cls/predictions/transform/dense/Tensordot/Const_1", "op": "Const", "attr": {"value": {"tensor": {"dtype": "DT_INT32", "tensorShape": {"dim": [{"size": "1"}]}}}, "dtype": {"type": "DT_INT32"}}}, {"name": "StatefulPartitionedCall/predictions___cls/predictions/transform/dense/Tensordot/ReadVariableOp", "op": "Const", "attr": {"dtype": {"type": "DT_FLOAT"}, "value": {"tensor": {"dtype": "DT_FLOAT", "tensorShape": {"dim": [{"size": "512"}, {"size": "512"}]}}}}}, {"name": "StatefulPartitionedCall/mobilebert/encoder/layer_._23/output/bottleneck/dense/Tensordot/Const", "op": "Const", "attr": {"dtype": {"type": "DT_INT32"}, "value": {"tensor": {"dtype": "DT_INT32", "tensorShape": {"dim": [{"size": "1"}]}}}}}, {"name": "StatefulPartitionedCall/mobilebert/encoder/layer_._23/output/bottleneck/dense/Tensordot/axes", "op": "Const", "attr": {"dtype": {"type": "DT_INT32"}, "value": {"tensor": {"dtype": "DT_INT32", "tensorShape": {"dim": [{"size": "1"}]}}}}}, {"name": "StatefulPartitionedCall/mobilebert/encoder/layer_._23/output/bottleneck/dense/Tensordot/GatherV2_1/axis", "op": "Const", "attr": {"value": {"tensor": {"dtype": "DT_INT32", "tensorShape": {}}}, "dtype": {"type": "DT_INT32"}}}, {"name": "StatefulPartitionedCall/mobilebert/encoder/layer_._23/output/bottleneck/dense/Tensordot/Const_1", "op": "Const", "attr": {"value": {"tensor": {"dtype": "DT_INT32", "tensorShape": {"dim": [{"size": "1"}]}}}, "dtype": {"type": "DT_INT32"}}}, {"name": "StatefulPartitionedCall/mobilebert/encoder/layer_._23/output/bottleneck/dense/Tensordot/ReadVariableOp", "op": "Const", "attr": {"dtype": {"type": "DT_FLOAT"}, "value": {"tensor": {"dtype": "DT_FLOAT", "tensorShape": {"dim": [{"size": "128"}, {"size": "512"}]}}}}}, {"name": "StatefulPartitionedCall/mobilebert/encoder/layer_._23/output/dense/Tensordot/Const", "op": "Const", "attr": {"value": {"tensor": {"dtype": "DT_INT32", "tensorShape": {"dim": [{"size": "1"}]}}}, "dtype": {"type": "DT_INT32"}}}, {"name": "StatefulPartitionedCall/mobilebert/encoder/layer_._23/output/dense/Tensordot/axes", "op": "Const", "attr": {"value": {"tensor": {"dtype": "DT_INT32", "tensorShape": {"dim": [{"size": "1"}]}}}, "dtype": {"type": "DT_INT32"}}}, {"name": "StatefulPartitionedCall/mobilebert/encoder/layer_._23/output/dense/Tensordot/GatherV2_1/axis", "op": "Const", "attr": {"value": {"tensor": {"dtype": "DT_INT32", "tensorShape": {}}}, "dtype": {"type": "DT_INT32"}}}, {"name": "StatefulPartitionedCall/mobilebert/encoder/layer_._23/output/dense/Tensordot/Const_1", "op": "Const", "attr": {"value": {"tensor": {"dtype": "DT_INT32", "tensorShape": {"dim": [{"size": "1"}]}}}, "dtype": {"type": "DT_INT32"}}}, {"name": "StatefulPartitionedCall/mobilebert/encoder/layer_._23/output/dense/Tensordot/ReadVariableOp", "op": "Const", "attr": {"dtype": {"type": "DT_FLOAT"}, "value": {"tensor": {"dtype": "DT_FLOAT", "tensorShape": {"dim": [{"size": "512"}, {"size": "128"}]}}}}}, {"name": "StatefulPartitionedCall/mobilebert/encoder/layer_._23/intermediate/dense/Tensordot/Const", "op": "Const", "attr": {"value": {"tensor": {"dtype": "DT_INT32", "tensorShape": {"dim": [{"size": "1"}]}}}, "dtype": {"type": "DT_INT32"}}}, {"name": "StatefulPartitionedCall/mobilebert/encoder/layer_._23/intermediate/dense/Tensordot/axes", "op": "Const", "attr": {"dtype": {"type": "DT_INT32"}, "value": {"tensor": {"dtype": "DT_INT32", "tensorShape": {"dim": [{"size": "1"}]}}}}}, {"name": "StatefulPartitionedCall/mobilebert/encoder/layer_._23/intermediate/dense/Tensordot/GatherV2_1/axis", "op": "Const", "attr": {"value": {"tensor": {"dtype": "DT_INT32", "tensorShape": {}}}, "dtype": {"type": "DT_INT32"}}}, {"name": "StatefulPartitionedCall/mobilebert/encoder/layer_._23/intermediate/dense/Tensordot/Const_1", "op": "Const", "attr": {"dtype": {"type": "DT_INT32"}, "value": {"tensor": {"dtype": "DT_INT32", "tensorShape": {"dim": [{"size": "1"}]}}}}}, {"name": "StatefulPartitionedCall/mobilebert/encoder/layer_._23/intermediate/dense/Tensordot/ReadVariableOp", "op": "Const", "attr": {"dtype": {"type": "DT_FLOAT"}, "value": {"tensor": {"dtype": "DT_FLOAT", "tensorShape": {"dim": [{"size": "128"}, {"size": "512"}]}}}}}, {"name": "StatefulPartitionedCall/mobilebert/encoder/layer_._23/intermediate/dense/Tensordot/free", "op": "Const", "attr": {"value": {"tensor": {"dtype": "DT_INT32", "tensorShape": {"dim": [{"size": "2"}]}}}, "dtype": {"type": "DT_INT32"}}}, {"name": "StatefulPartitionedCall/mobilebert/encoder/layer_._23/intermediate/dense/Tensordot/GatherV2/axis", "op": "Const", "attr": {"value": {"tensor": {"dtype": "DT_INT32", "tensorShape": {}}}, "dtype": {"type": "DT_INT32"}}}, {"name": "StatefulPartitionedCall/mobilebert/encoder/layer_._23/intermediate/dense/Tensordot/Const_2", "op": "Const", "attr": {"dtype": {"type": "DT_INT32"}, "value": {"tensor": {"dtype": "DT_INT32", "tensorShape": {"dim": [{"size": "1"}]}}}}}, {"name": "StatefulPartitionedCall/mobilebert/encoder/layer_._23/intermediate/dense/Tensordot/concat_1/axis", "op": "Const", "attr": {"value": {"tensor": {"dtype": "DT_INT32", "tensorShape": {}}}, "dtype": {"type": "DT_INT32"}}}, {"name": "StatefulPartitionedCall/mobilebert/encoder/layer_._23/intermediate/dense/BiasAdd/ReadVariableOp", "op": "Const", "attr": {"dtype": {"type": "DT_FLOAT"}, "value": {"tensor": {"dtype": "DT_FLOAT", "tensorShape": {"dim": [{"size": "512"}]}}}}}, {"name": "StatefulPartitionedCall/mobilebert/encoder/layer_._23/output/dense/Tensordot/free", "op": "Const", "attr": {"dtype": {"type": "DT_INT32"}, "value": {"tensor": {"dtype": "DT_INT32", "tensorShape": {"dim": [{"size": "2"}]}}}}}, {"name": "StatefulPartitionedCall/mobilebert/encoder/layer_._23/output/dense/Tensordot/GatherV2/axis", "op": "Const", "attr": {"dtype": {"type": "DT_INT32"}, "value": {"tensor": {"dtype": "DT_INT32", "tensorShape": {}}}}}, {"name": "StatefulPartitionedCall/mobilebert/encoder/layer_._23/output/dense/Tensordot/Const_2", "op": "Const", "attr": {"dtype": {"type": "DT_INT32"}, "value": {"tensor": {"dtype": "DT_INT32", "tensorShape": {"dim": [{"size": "1"}]}}}}}, {"name": "StatefulPartitionedCall/mobilebert/encoder/layer_._23/output/dense/Tensordot/concat_1/axis", "op": "Const", "attr": {"dtype": {"type": "DT_INT32"}, "value": {"tensor": {"dtype": "DT_INT32", "tensorShape": {}}}}}, {"name": "StatefulPartitionedCall/mobilebert/encoder/layer_._23/output/dense/BiasAdd/ReadVariableOp", "op": "Const", "attr": {"dtype": {"type": "DT_FLOAT"}, "value": {"tensor": {"dtype": "DT_FLOAT", "tensorShape": {"dim": [{"size": "128"}]}}}}}, {"name": "StatefulPartitionedCall/mobilebert/encoder/layer_._23/ffn.2/output/dense/Tensordot/Const", "op": "Const", "attr": {"dtype": {"type": "DT_INT32"}, "value": {"tensor": {"dtype": "DT_INT32", "tensorShape": {"dim": [{"size": "1"}]}}}}}, {"name": "StatefulPartitionedCall/mobilebert/encoder/layer_._23/ffn.2/output/dense/Tensordot/axes", "op": "Const", "attr": {"dtype": {"type": "DT_INT32"}, "value": {"tensor": {"dtype": "DT_INT32", "tensorShape": {"dim": [{"size": "1"}]}}}}}, {"name": "StatefulPartitionedCall/mobilebert/encoder/layer_._23/ffn.2/output/dense/Tensordot/GatherV2_1/axis", "op": "Const", "attr": {"dtype": {"type": "DT_INT32"}, "value": {"tensor": {"dtype": "DT_INT32", "tensorShape": {}}}}}, {"name": "StatefulPartitionedCall/mobilebert/encoder/layer_._23/ffn.2/output/dense/Tensordot/Const_1", "op": "Const", "attr": {"value": {"tensor": {"dtype": "DT_INT32", "tensorShape": {"dim": [{"size": "1"}]}}}, "dtype": {"type": "DT_INT32"}}}, {"name": "StatefulPartitionedCall/mobilebert/encoder/layer_._23/ffn.2/output/dense/Tensordot/ReadVariableOp", "op": "Const", "attr": {"dtype": {"type": "DT_FLOAT"}, "value": {"tensor": {"dtype": "DT_FLOAT", "tensorShape": {"dim": [{"size": "512"}, {"size": "128"}]}}}}}, {"name": "StatefulPartitionedCall/mobilebert/encoder/layer_._23/ffn.2/intermediate/dense/Tensordot/Const", "op": "Const", "attr": {"value": {"tensor": {"dtype": "DT_INT32", "tensorShape": {"dim": [{"size": "1"}]}}}, "dtype": {"type": "DT_INT32"}}}, {"name": "StatefulPartitionedCall/mobilebert/encoder/layer_._23/ffn.2/intermediate/dense/Tensordot/axes", "op": "Const", "attr": {"dtype": {"type": "DT_INT32"}, "value": {"tensor": {"dtype": "DT_INT32", "tensorShape": {"dim": [{"size": "1"}]}}}}}, {"name": "StatefulPartitionedCall/mobilebert/encoder/layer_._23/ffn.2/intermediate/dense/Tensordot/GatherV2_1/axis", "op": "Const", "attr": {"dtype": {"type": "DT_INT32"}, "value": {"tensor": {"dtype": "DT_INT32", "tensorShape": {}}}}}, {"name": "StatefulPartitionedCall/mobilebert/encoder/layer_._23/ffn.2/intermediate/dense/Tensordot/Const_1", "op": "Const", "attr": {"dtype": {"type": "DT_INT32"}, "value": {"tensor": {"dtype": "DT_INT32", "tensorShape": {"dim": [{"size": "1"}]}}}}}, {"name": "StatefulPartitionedCall/mobilebert/encoder/layer_._23/ffn.2/intermediate/dense/Tensordot/ReadVariableOp", "op": "Const", "attr": {"dtype": {"type": "DT_FLOAT"}, "value": {"tensor": {"dtype": "DT_FLOAT", "tensorShape": {"dim": [{"size": "128"}, {"size": "512"}]}}}}}, {"name": "StatefulPartitionedCall/mobilebert/encoder/layer_._23/ffn.2/intermediate/dense/Tensordot/free", "op": "Const", "attr": {"dtype": {"type": "DT_INT32"}, "value": {"tensor": {"dtype": "DT_INT32", "tensorShape": {"dim": [{"size": "2"}]}}}}}, {"name": "StatefulPartitionedCall/mobilebert/encoder/layer_._23/ffn.2/intermediate/dense/Tensordot/GatherV2/axis", "op": "Const", "attr": {"dtype": {"type": "DT_INT32"}, "value": {"tensor": {"dtype": "DT_INT32", "tensorShape": {}}}}}, {"name": "StatefulPartitionedCall/mobilebert/encoder/layer_._23/ffn.2/intermediate/dense/Tensordot/Const_2", "op": "Const", "attr": {"value": {"tensor": {"dtype": "DT_INT32", "tensorShape": {"dim": [{"size": "1"}]}}}, "dtype": {"type": "DT_INT32"}}}, {"name": "StatefulPartitionedCall/mobilebert/encoder/layer_._23/ffn.2/intermediate/dense/Tensordot/concat_1/axis", "op": "Const", "attr": {"value": {"tensor": {"dtype": "DT_INT32", "tensorShape": {}}}, "dtype": {"type": "DT_INT32"}}}, {"name": "StatefulPartitionedCall/mobilebert/encoder/layer_._23/ffn.2/intermediate/dense/BiasAdd/ReadVariableOp", "op": "Const", "attr": {"value": {"tensor": {"dtype": "DT_FLOAT", "tensorShape": {"dim": [{"size": "512"}]}}}, "dtype": {"type": "DT_FLOAT"}}}, {"name": "StatefulPartitionedCall/mobilebert/encoder/layer_._23/ffn.2/output/dense/Tensordot/free", "op": "Const", "attr": {"dtype": {"type": "DT_INT32"}, "value": {"tensor": {"dtype": "DT_INT32", "tensorShape": {"dim": [{"size": "2"}]}}}}}, {"name": "StatefulPartitionedCall/mobilebert/encoder/layer_._23/ffn.2/output/dense/Tensordot/GatherV2/axis", "op": "Const", "attr": {"value": {"tensor": {"dtype": "DT_INT32", "tensorShape": {}}}, "dtype": {"type": "DT_INT32"}}}, {"name": "StatefulPartitionedCall/mobilebert/encoder/layer_._23/ffn.2/output/dense/Tensordot/Const_2", "op": "Const", "attr": {"dtype": {"type": "DT_INT32"}, "value": {"tensor": {"dtype": "DT_INT32", "tensorShape": {"dim": [{"size": "1"}]}}}}}, {"name": "StatefulPartitionedCall/mobilebert/encoder/layer_._23/ffn.2/output/dense/Tensordot/concat_1/axis", "op": "Const", "attr": {"dtype": {"type": "DT_INT32"}, "value": {"tensor": {"dtype": "DT_INT32", "tensorShape": {}}}}}, {"name": "StatefulPartitionedCall/mobilebert/encoder/layer_._23/ffn.2/output/dense/BiasAdd/ReadVariableOp", "op": "Const", "attr": {"dtype": {"type": "DT_FLOAT"}, "value": {"tensor": {"dtype": "DT_FLOAT", "tensorShape": {"dim": [{"size": "128"}]}}}}}, {"name": "StatefulPartitionedCall/mobilebert/encoder/layer_._23/ffn.1/output/dense/Tensordot/Const", "op": "Const", "attr": {"dtype": {"type": "DT_INT32"}, "value": {"tensor": {"dtype": "DT_INT32", "tensorShape": {"dim": [{"size": "1"}]}}}}}, {"name": "StatefulPartitionedCall/mobilebert/encoder/layer_._23/ffn.1/output/dense/Tensordot/axes", "op": "Const", "attr": {"value": {"tensor": {"dtype": "DT_INT32", "tensorShape": {"dim": [{"size": "1"}]}}}, "dtype": {"type": "DT_INT32"}}}, {"name": "StatefulPartitionedCall/mobilebert/encoder/layer_._23/ffn.1/output/dense/Tensordot/GatherV2_1/axis", "op": "Const", "attr": {"value": {"tensor": {"dtype": "DT_INT32", "tensorShape": {}}}, "dtype": {"type": "DT_INT32"}}}, {"name": "StatefulPartitionedCall/mobilebert/encoder/layer_._23/ffn.1/output/dense/Tensordot/Const_1", "op": "Const", "attr": {"value": {"tensor": {"dtype": "DT_INT32", "tensorShape": {"dim": [{"size": "1"}]}}}, "dtype": {"type": "DT_INT32"}}}, {"name": "StatefulPartitionedCall/mobilebert/encoder/layer_._23/ffn.1/output/dense/Tensordot/ReadVariableOp", "op": "Const", "attr": {"dtype": {"type": "DT_FLOAT"}, "value": {"tensor": {"dtype": "DT_FLOAT", "tensorShape": {"dim": [{"size": "512"}, {"size": "128"}]}}}}}, {"name": "StatefulPartitionedCall/mobilebert/encoder/layer_._23/ffn.1/intermediate/dense/Tensordot/Const", "op": "Const", "attr": {"dtype": {"type": "DT_INT32"}, "value": {"tensor": {"dtype": "DT_INT32", "tensorShape": {"dim": [{"size": "1"}]}}}}}, {"name": "StatefulPartitionedCall/mobilebert/encoder/layer_._23/ffn.1/intermediate/dense/Tensordot/axes", "op": "Const", "attr": {"dtype": {"type": "DT_INT32"}, "value": {"tensor": {"dtype": "DT_INT32", "tensorShape": {"dim": [{"size": "1"}]}}}}}, {"name": "StatefulPartitionedCall/mobilebert/encoder/layer_._23/ffn.1/intermediate/dense/Tensordot/GatherV2_1/axis", "op": "Const", "attr": {"value": {"tensor": {"dtype": "DT_INT32", "tensorShape": {}}}, "dtype": {"type": "DT_INT32"}}}, {"name": "StatefulPartitionedCall/mobilebert/encoder/layer_._23/ffn.1/intermediate/dense/Tensordot/Const_1", "op": "Const", "attr": {"dtype": {"type": "DT_INT32"}, "value": {"tensor": {"dtype": "DT_INT32", "tensorShape": {"dim": [{"size": "1"}]}}}}}, {"name": "StatefulPartitionedCall/mobilebert/encoder/layer_._23/ffn.1/intermediate/dense/Tensordot/ReadVariableOp", "op": "Const", "attr": {"dtype": {"type": "DT_FLOAT"}, "value": {"tensor": {"dtype": "DT_FLOAT", "tensorShape": {"dim": [{"size": "128"}, {"size": "512"}]}}}}}, {"name": "StatefulPartitionedCall/mobilebert/encoder/layer_._23/ffn.1/intermediate/dense/Tensordot/free", "op": "Const", "attr": {"dtype": {"type": "DT_INT32"}, "value": {"tensor": {"dtype": "DT_INT32", "tensorShape": {"dim": [{"size": "2"}]}}}}}, {"name": "StatefulPartitionedCall/mobilebert/encoder/layer_._23/ffn.1/intermediate/dense/Tensordot/GatherV2/axis", "op": "Const", "attr": {"dtype": {"type": "DT_INT32"}, "value": {"tensor": {"dtype": "DT_INT32", "tensorShape": {}}}}}, {"name": "StatefulPartitionedCall/mobilebert/encoder/layer_._23/ffn.1/intermediate/dense/Tensordot/Const_2", "op": "Const", "attr": {"dtype": {"type": "DT_INT32"}, "value": {"tensor": {"dtype": "DT_INT32", "tensorShape": {"dim": [{"size": "1"}]}}}}}, {"name": "StatefulPartitionedCall/mobilebert/encoder/layer_._23/ffn.1/intermediate/dense/Tensordot/concat_1/axis", "op": "Const", "attr": {"dtype": {"type": "DT_INT32"}, "value": {"tensor": {"dtype": "DT_INT32", "tensorShape": {}}}}}, {"name": "StatefulPartitionedCall/mobilebert/encoder/layer_._23/ffn.1/intermediate/dense/BiasAdd/ReadVariableOp", "op": "Const", "attr": {"dtype": {"type": "DT_FLOAT"}, "value": {"tensor": {"dtype": "DT_FLOAT", "tensorShape": {"dim": [{"size": "512"}]}}}}}, {"name": "StatefulPartitionedCall/mobilebert/encoder/layer_._23/ffn.1/output/dense/Tensordot/free", "op": "Const", "attr": {"dtype": {"type": "DT_INT32"}, "value": {"tensor": {"dtype": "DT_INT32", "tensorShape": {"dim": [{"size": "2"}]}}}}}, {"name": "StatefulPartitionedCall/mobilebert/encoder/layer_._23/ffn.1/output/dense/Tensordot/GatherV2/axis", "op": "Const", "attr": {"value": {"tensor": {"dtype": "DT_INT32", "tensorShape": {}}}, "dtype": {"type": "DT_INT32"}}}, {"name": "StatefulPartitionedCall/mobilebert/encoder/layer_._23/ffn.1/output/dense/Tensordot/Const_2", "op": "Const", "attr": {"value": {"tensor": {"dtype": "DT_INT32", "tensorShape": {"dim": [{"size": "1"}]}}}, "dtype": {"type": "DT_INT32"}}}, {"name": "StatefulPartitionedCall/mobilebert/encoder/layer_._23/ffn.1/output/dense/Tensordot/concat_1/axis", "op": "Const", "attr": {"dtype": {"type": "DT_INT32"}, "value": {"tensor": {"dtype": "DT_INT32", "tensorShape": {}}}}}, {"name": "StatefulPartitionedCall/mobilebert/encoder/layer_._23/ffn.1/output/dense/BiasAdd/ReadVariableOp", "op": "Const", "attr": {"dtype": {"type": "DT_FLOAT"}, "value": {"tensor": {"dtype": "DT_FLOAT", "tensorShape": {"dim": [{"size": "128"}]}}}}}, {"name": "StatefulPartitionedCall/mobilebert/encoder/layer_._23/ffn.0/output/dense/Tensordot/Const", "op": "Const", "attr": {"value": {"tensor": {"dtype": "DT_INT32", "tensorShape": {"dim": [{"size": "1"}]}}}, "dtype": {"type": "DT_INT32"}}}, {"name": "StatefulPartitionedCall/mobilebert/encoder/layer_._23/ffn.0/output/dense/Tensordot/axes", "op": "Const", "attr": {"dtype": {"type": "DT_INT32"}, "value": {"tensor": {"dtype": "DT_INT32", "tensorShape": {"dim": [{"size": "1"}]}}}}}, {"name": "StatefulPartitionedCall/mobilebert/encoder/layer_._23/ffn.0/output/dense/Tensordot/GatherV2_1/axis", "op": "Const", "attr": {"dtype": {"type": "DT_INT32"}, "value": {"tensor": {"dtype": "DT_INT32", "tensorShape": {}}}}}, {"name": "StatefulPartitionedCall/mobilebert/encoder/layer_._23/ffn.0/output/dense/Tensordot/Const_1", "op": "Const", "attr": {"dtype": {"type": "DT_INT32"}, "value": {"tensor": {"dtype": "DT_INT32", "tensorShape": {"dim": [{"size": "1"}]}}}}}, {"name": "StatefulPartitionedCall/mobilebert/encoder/layer_._23/ffn.0/output/dense/Tensordot/ReadVariableOp", "op": "Const", "attr": {"dtype": {"type": "DT_FLOAT"}, "value": {"tensor": {"dtype": "DT_FLOAT", "tensorShape": {"dim": [{"size": "512"}, {"size": "128"}]}}}}}, {"name": "StatefulPartitionedCall/mobilebert/encoder/layer_._23/ffn.0/intermediate/dense/Tensordot/Const", "op": "Const", "attr": {"dtype": {"type": "DT_INT32"}, "value": {"tensor": {"dtype": "DT_INT32", "tensorShape": {"dim": [{"size": "1"}]}}}}}, {"name": "StatefulPartitionedCall/mobilebert/encoder/layer_._23/ffn.0/intermediate/dense/Tensordot/axes", "op": "Const", "attr": {"dtype": {"type": "DT_INT32"}, "value": {"tensor": {"dtype": "DT_INT32", "tensorShape": {"dim": [{"size": "1"}]}}}}}, {"name": "StatefulPartitionedCall/mobilebert/encoder/layer_._23/ffn.0/intermediate/dense/Tensordot/GatherV2_1/axis", "op": "Const", "attr": {"value": {"tensor": {"dtype": "DT_INT32", "tensorShape": {}}}, "dtype": {"type": "DT_INT32"}}}, {"name": "StatefulPartitionedCall/mobilebert/encoder/layer_._23/ffn.0/intermediate/dense/Tensordot/Const_1", "op": "Const", "attr": {"value": {"tensor": {"dtype": "DT_INT32", "tensorShape": {"dim": [{"size": "1"}]}}}, "dtype": {"type": "DT_INT32"}}}, {"name": "StatefulPartitionedCall/mobilebert/encoder/layer_._23/ffn.0/intermediate/dense/Tensordot/ReadVariableOp", "op": "Const", "attr": {"value": {"tensor": {"dtype": "DT_FLOAT", "tensorShape": {"dim": [{"size": "128"}, {"size": "512"}]}}}, "dtype": {"type": "DT_FLOAT"}}}, {"name": "StatefulPartitionedCall/mobilebert/encoder/layer_._23/ffn.0/intermediate/dense/Tensordot/free", "op": "Const", "attr": {"value": {"tensor": {"dtype": "DT_INT32", "tensorShape": {"dim": [{"size": "2"}]}}}, "dtype": {"type": "DT_INT32"}}}, {"name": "StatefulPartitionedCall/mobilebert/encoder/layer_._23/ffn.0/intermediate/dense/Tensordot/GatherV2/axis", "op": "Const", "attr": {"dtype": {"type": "DT_INT32"}, "value": {"tensor": {"dtype": "DT_INT32", "tensorShape": {}}}}}, {"name": "StatefulPartitionedCall/mobilebert/encoder/layer_._23/ffn.0/intermediate/dense/Tensordot/Const_2", "op": "Const", "attr": {"dtype": {"type": "DT_INT32"}, "value": {"tensor": {"dtype": "DT_INT32", "tensorShape": {"dim": [{"size": "1"}]}}}}}, {"name": "StatefulPartitionedCall/mobilebert/encoder/layer_._23/ffn.0/intermediate/dense/Tensordot/concat_1/axis", "op": "Const", "attr": {"dtype": {"type": "DT_INT32"}, "value": {"tensor": {"dtype": "DT_INT32", "tensorShape": {}}}}}, {"name": "StatefulPartitionedCall/mobilebert/encoder/layer_._23/ffn.0/intermediate/dense/BiasAdd/ReadVariableOp", "op": "Const", "attr": {"dtype": {"type": "DT_FLOAT"}, "value": {"tensor": {"dtype": "DT_FLOAT", "tensorShape": {"dim": [{"size": "512"}]}}}}}, {"name": "StatefulPartitionedCall/mobilebert/encoder/layer_._23/ffn.0/output/dense/Tensordot/free", "op": "Const", "attr": {"dtype": {"type": "DT_INT32"}, "value": {"tensor": {"dtype": "DT_INT32", "tensorShape": {"dim": [{"size": "2"}]}}}}}, {"name": "StatefulPartitionedCall/mobilebert/encoder/layer_._23/ffn.0/output/dense/Tensordot/GatherV2/axis", "op": "Const", "attr": {"dtype": {"type": "DT_INT32"}, "value": {"tensor": {"dtype": "DT_INT32", "tensorShape": {}}}}}, {"name": "StatefulPartitionedCall/mobilebert/encoder/layer_._23/ffn.0/output/dense/Tensordot/Const_2", "op": "Const", "attr": {"dtype": {"type": "DT_INT32"}, "value": {"tensor": {"dtype": "DT_INT32", "tensorShape": {"dim": [{"size": "1"}]}}}}}, {"name": "StatefulPartitionedCall/mobilebert/encoder/layer_._23/ffn.0/output/dense/Tensordot/concat_1/axis", "op": "Const", "attr": {"dtype": {"type": "DT_INT32"}, "value": {"tensor": {"dtype": "DT_INT32", "tensorShape": {}}}}}, {"name": "StatefulPartitionedCall/mobilebert/encoder/layer_._23/ffn.0/output/dense/BiasAdd/ReadVariableOp", "op": "Const", "attr": {"value": {"tensor": {"dtype": "DT_FLOAT", "tensorShape": {"dim": [{"size": "128"}]}}}, "dtype": {"type": "DT_FLOAT"}}}, {"name": "StatefulPartitionedCall/mobilebert/encoder/layer_._23/attention/output/dense/Tensordot/Const", "op": "Const", "attr": {"value": {"tensor": {"dtype": "DT_INT32", "tensorShape": {"dim": [{"size": "1"}]}}}, "dtype": {"type": "DT_INT32"}}}, {"name": "StatefulPartitionedCall/mobilebert/encoder/layer_._23/attention/output/dense/Tensordot/axes", "op": "Const", "attr": {"dtype": {"type": "DT_INT32"}, "value": {"tensor": {"dtype": "DT_INT32", "tensorShape": {"dim": [{"size": "1"}]}}}}}, {"name": "StatefulPartitionedCall/mobilebert/encoder/layer_._23/attention/output/dense/Tensordot/GatherV2_1/axis", "op": "Const", "attr": {"dtype": {"type": "DT_INT32"}, "value": {"tensor": {"dtype": "DT_INT32", "tensorShape": {}}}}}, {"name": "StatefulPartitionedCall/mobilebert/encoder/layer_._23/attention/output/dense/Tensordot/Const_1", "op": "Const", "attr": {"value": {"tensor": {"dtype": "DT_INT32", "tensorShape": {"dim": [{"size": "1"}]}}}, "dtype": {"type": "DT_INT32"}}}, {"name": "StatefulPartitionedCall/mobilebert/encoder/layer_._23/attention/output/dense/Tensordot/ReadVariableOp", "op": "Const", "attr": {"value": {"tensor": {"dtype": "DT_FLOAT", "tensorShape": {"dim": [{"size": "128"}, {"size": "128"}]}}}, "dtype": {"type": "DT_FLOAT"}}}, {"name": "StatefulPartitionedCall/mobilebert/encoder/layer_._23/attention/self/query/Tensordot/Const", "op": "Const", "attr": {"value": {"tensor": {"dtype": "DT_INT32", "tensorShape": {"dim": [{"size": "1"}]}}}, "dtype": {"type": "DT_INT32"}}}, {"name": "StatefulPartitionedCall/mobilebert/encoder/layer_._23/attention/self/query/Tensordot/axes", "op": "Const", "attr": {"value": {"tensor": {"dtype": "DT_INT32", "tensorShape": {"dim": [{"size": "1"}]}}}, "dtype": {"type": "DT_INT32"}}}, {"name": "StatefulPartitionedCall/mobilebert/encoder/layer_._23/attention/self/query/Tensordot/GatherV2_1/axis", "op": "Const", "attr": {"value": {"tensor": {"dtype": "DT_INT32", "tensorShape": {}}}, "dtype": {"type": "DT_INT32"}}}, {"name": "StatefulPartitionedCall/mobilebert/encoder/layer_._23/attention/self/query/Tensordot/Const_1", "op": "Const", "attr": {"dtype": {"type": "DT_INT32"}, "value": {"tensor": {"dtype": "DT_INT32", "tensorShape": {"dim": [{"size": "1"}]}}}}}, {"name": "StatefulPartitionedCall/mobilebert/encoder/layer_._23/attention/self/query/Tensordot/ReadVariableOp", "op": "Const", "attr": {"value": {"tensor": {"dtype": "DT_FLOAT", "tensorShape": {"dim": [{"size": "128"}, {"size": "128"}]}}}, "dtype": {"type": "DT_FLOAT"}}}, {"name": "StatefulPartitionedCall/mobilebert/encoder/layer_._23/attention/self/query/Tensordot/free", "op": "Const", "attr": {"value": {"tensor": {"dtype": "DT_INT32", "tensorShape": {"dim": [{"size": "2"}]}}}, "dtype": {"type": "DT_INT32"}}}, {"name": "StatefulPartitionedCall/mobilebert/encoder/layer_._23/attention/self/query/Tensordot/GatherV2/axis", "op": "Const", "attr": {"dtype": {"type": "DT_INT32"}, "value": {"tensor": {"dtype": "DT_INT32", "tensorShape": {}}}}}, {"name": "StatefulPartitionedCall/mobilebert/encoder/layer_._23/attention/self/query/Tensordot/Const_2", "op": "Const", "attr": {"value": {"tensor": {"dtype": "DT_INT32", "tensorShape": {"dim": [{"size": "1"}]}}}, "dtype": {"type": "DT_INT32"}}}, {"name": "StatefulPartitionedCall/mobilebert/encoder/layer_._23/attention/self/query/Tensordot/concat_1/axis", "op": "Const", "attr": {"dtype": {"type": "DT_INT32"}, "value": {"tensor": {"dtype": "DT_INT32", "tensorShape": {}}}}}, {"name": "StatefulPartitionedCall/mobilebert/encoder/layer_._23/attention/self/query/BiasAdd/ReadVariableOp", "op": "Const", "attr": {"dtype": {"type": "DT_FLOAT"}, "value": {"tensor": {"dtype": "DT_FLOAT", "tensorShape": {"dim": [{"size": "128"}]}}}}}, {"name": "StatefulPartitionedCall/mobilebert/encoder/layer_._23/attention/self/Reshape/shape/1", "op": "Const", "attr": {"dtype": {"type": "DT_INT32"}, "value": {"tensor": {"dtype": "DT_INT32", "tensorShape": {}}}}}, {"name": "StatefulPartitionedCall/mobilebert/encoder/layer_._23/attention/self/Reshape/shape/2", "op": "Const", "attr": {"value": {"tensor": {"dtype": "DT_INT32", "tensorShape": {}}}, "dtype": {"type": "DT_INT32"}}}, {"name": "StatefulPartitionedCall/mobilebert/encoder/layer_._23/attention/self/Reshape/shape/3", "op": "Const", "attr": {"value": {"tensor": {"dtype": "DT_INT32", "tensorShape": {}}}, "dtype": {"type": "DT_INT32"}}}, {"name": "StatefulPartitionedCall/mobilebert/encoder/layer_._23/attention/self/transpose/perm", "op": "Const", "attr": {"value": {"tensor": {"dtype": "DT_INT32", "tensorShape": {"dim": [{"size": "4"}]}}}, "dtype": {"type": "DT_INT32"}}}, {"name": "StatefulPartitionedCall/mobilebert/encoder/layer_._23/attention/self/key/Tensordot/Const", "op": "Const", "attr": {"dtype": {"type": "DT_INT32"}, "value": {"tensor": {"dtype": "DT_INT32", "tensorShape": {"dim": [{"size": "1"}]}}}}}, {"name": "StatefulPartitionedCall/mobilebert/encoder/layer_._23/attention/self/key/Tensordot/axes", "op": "Const", "attr": {"value": {"tensor": {"dtype": "DT_INT32", "tensorShape": {"dim": [{"size": "1"}]}}}, "dtype": {"type": "DT_INT32"}}}, {"name": "StatefulPartitionedCall/mobilebert/encoder/layer_._23/attention/self/key/Tensordot/GatherV2_1/axis", "op": "Const", "attr": {"value": {"tensor": {"dtype": "DT_INT32", "tensorShape": {}}}, "dtype": {"type": "DT_INT32"}}}, {"name": "StatefulPartitionedCall/mobilebert/encoder/layer_._23/attention/self/key/Tensordot/Const_1", "op": "Const", "attr": {"dtype": {"type": "DT_INT32"}, "value": {"tensor": {"dtype": "DT_INT32", "tensorShape": {"dim": [{"size": "1"}]}}}}}, {"name": "StatefulPartitionedCall/mobilebert/encoder/layer_._23/attention/self/key/Tensordot/ReadVariableOp", "op": "Const", "attr": {"dtype": {"type": "DT_FLOAT"}, "value": {"tensor": {"dtype": "DT_FLOAT", "tensorShape": {"dim": [{"size": "128"}, {"size": "128"}]}}}}}, {"name": "StatefulPartitionedCall/mobilebert/encoder/layer_._23/bottleneck/attention/dense/Tensordot/Const", "op": "Const", "attr": {"value": {"tensor": {"dtype": "DT_INT32", "tensorShape": {"dim": [{"size": "1"}]}}}, "dtype": {"type": "DT_INT32"}}}, {"name": "StatefulPartitionedCall/mobilebert/encoder/layer_._23/bottleneck/attention/dense/Tensordot/axes", "op": "Const", "attr": {"dtype": {"type": "DT_INT32"}, "value": {"tensor": {"dtype": "DT_INT32", "tensorShape": {"dim": [{"size": "1"}]}}}}}, {"name": "StatefulPartitionedCall/mobilebert/encoder/layer_._23/bottleneck/attention/dense/Tensordot/GatherV2_1/axis", "op": "Const", "attr": {"value": {"tensor": {"dtype": "DT_INT32", "tensorShape": {}}}, "dtype": {"type": "DT_INT32"}}}, {"name": "StatefulPartitionedCall/mobilebert/encoder/layer_._23/bottleneck/attention/dense/Tensordot/Const_1", "op": "Const", "attr": {"value": {"tensor": {"dtype": "DT_INT32", "tensorShape": {"dim": [{"size": "1"}]}}}, "dtype": {"type": "DT_INT32"}}}, {"name": "StatefulPartitionedCall/mobilebert/encoder/layer_._23/bottleneck/attention/dense/Tensordot/ReadVariableOp", "op": "Const", "attr": {"value": {"tensor": {"dtype": "DT_FLOAT", "tensorShape": {"dim": [{"size": "512"}, {"size": "128"}]}}}, "dtype": {"type": "DT_FLOAT"}}}, {"name": "StatefulPartitionedCall/mobilebert/encoder/layer_._23/bottleneck/attention/dense/Tensordot/free", "op": "Const", "attr": {"dtype": {"type": "DT_INT32"}, "value": {"tensor": {"dtype": "DT_INT32", "tensorShape": {"dim": [{"size": "2"}]}}}}}, {"name": "StatefulPartitionedCall/mobilebert/encoder/layer_._23/bottleneck/attention/dense/Tensordot/GatherV2/axis", "op": "Const", "attr": {"dtype": {"type": "DT_INT32"}, "value": {"tensor": {"dtype": "DT_INT32", "tensorShape": {}}}}}, {"name": "StatefulPartitionedCall/mobilebert/encoder/layer_._23/bottleneck/attention/dense/Tensordot/Const_2", "op": "Const", "attr": {"value": {"tensor": {"dtype": "DT_INT32", "tensorShape": {"dim": [{"size": "1"}]}}}, "dtype": {"type": "DT_INT32"}}}, {"name": "StatefulPartitionedCall/mobilebert/encoder/layer_._23/bottleneck/attention/dense/Tensordot/concat_1/axis", "op": "Const", "attr": {"value": {"tensor": {"dtype": "DT_INT32", "tensorShape": {}}}, "dtype": {"type": "DT_INT32"}}}, {"name": "StatefulPartitionedCall/mobilebert/encoder/layer_._23/bottleneck/attention/dense/BiasAdd/ReadVariableOp", "op": "Const", "attr": {"value": {"tensor": {"dtype": "DT_FLOAT", "tensorShape": {"dim": [{"size": "128"}]}}}, "dtype": {"type": "DT_FLOAT"}}}, {"name": "StatefulPartitionedCall/mobilebert/encoder/layer_._23/bottleneck/attention/LayerNorm/mul/ReadVariableOp", "op": "Const", "attr": {"value": {"tensor": {"dtype": "DT_FLOAT", "tensorShape": {"dim": [{"size": "128"}]}}}, "dtype": {"type": "DT_FLOAT"}}}, {"name": "StatefulPartitionedCall/mobilebert/encoder/layer_._23/bottleneck/attention/LayerNorm/add/ReadVariableOp", "op": "Const", "attr": {"dtype": {"type": "DT_FLOAT"}, "value": {"tensor": {"dtype": "DT_FLOAT", "tensorShape": {"dim": [{"size": "128"}]}}}}}, {"name": "StatefulPartitionedCall/mobilebert/encoder/layer_._23/attention/self/key/Tensordot/free", "op": "Const", "attr": {"value": {"tensor": {"dtype": "DT_INT32", "tensorShape": {"dim": [{"size": "2"}]}}}, "dtype": {"type": "DT_INT32"}}}, {"name": "StatefulPartitionedCall/mobilebert/encoder/layer_._23/attention/self/key/Tensordot/GatherV2/axis", "op": "Const", "attr": {"dtype": {"type": "DT_INT32"}, "value": {"tensor": {"dtype": "DT_INT32", "tensorShape": {}}}}}, {"name": "StatefulPartitionedCall/mobilebert/encoder/layer_._23/attention/self/key/Tensordot/Const_2", "op": "Const", "attr": {"dtype": {"type": "DT_INT32"}, "value": {"tensor": {"dtype": "DT_INT32", "tensorShape": {"dim": [{"size": "1"}]}}}}}, {"name": "StatefulPartitionedCall/mobilebert/encoder/layer_._23/attention/self/key/Tensordot/concat_1/axis", "op": "Const", "attr": {"dtype": {"type": "DT_INT32"}, "value": {"tensor": {"dtype": "DT_INT32", "tensorShape": {}}}}}, {"name": "StatefulPartitionedCall/mobilebert/encoder/layer_._23/attention/self/key/BiasAdd/ReadVariableOp", "op": "Const", "attr": {"dtype": {"type": "DT_FLOAT"}, "value": {"tensor": {"dtype": "DT_FLOAT", "tensorShape": {"dim": [{"size": "128"}]}}}}}, {"name": "StatefulPartitionedCall/mobilebert/encoder/layer_._23/attention/self/Reshape_1/shape/1", "op": "Const", "attr": {"dtype": {"type": "DT_INT32"}, "value": {"tensor": {"dtype": "DT_INT32", "tensorShape": {}}}}}, {"name": "StatefulPartitionedCall/mobilebert/encoder/layer_._23/attention/self/Reshape_1/shape/2", "op": "Const", "attr": {"value": {"tensor": {"dtype": "DT_INT32", "tensorShape": {}}}, "dtype": {"type": "DT_INT32"}}}, {"name": "StatefulPartitionedCall/mobilebert/encoder/layer_._23/attention/self/Reshape_1/shape/3", "op": "Const", "attr": {"dtype": {"type": "DT_INT32"}, "value": {"tensor": {"dtype": "DT_INT32", "tensorShape": {}}}}}, {"name": "StatefulPartitionedCall/mobilebert/encoder/layer_._23/attention/self/transpose_1/perm", "op": "Const", "attr": {"value": {"tensor": {"dtype": "DT_INT32", "tensorShape": {"dim": [{"size": "4"}]}}}, "dtype": {"type": "DT_INT32"}}}, {"name": "ConstantFolding/StatefulPartitionedCall/mobilebert/encoder/layer_._23/attention/self/truediv_recip", "op": "Const", "attr": {"dtype": {"type": "DT_FLOAT"}, "value": {"tensor": {"dtype": "DT_FLOAT", "tensorShape": {}}}}}, {"name": "StatefulPartitionedCall/mobilebert/encoder/layer_._23/attention/self/value/Tensordot/Const", "op": "Const", "attr": {"value": {"tensor": {"dtype": "DT_INT32", "tensorShape": {"dim": [{"size": "1"}]}}}, "dtype": {"type": "DT_INT32"}}}, {"name": "StatefulPartitionedCall/mobilebert/encoder/layer_._23/attention/self/value/Tensordot/axes", "op": "Const", "attr": {"dtype": {"type": "DT_INT32"}, "value": {"tensor": {"dtype": "DT_INT32", "tensorShape": {"dim": [{"size": "1"}]}}}}}, {"name": "StatefulPartitionedCall/mobilebert/encoder/layer_._23/attention/self/value/Tensordot/GatherV2_1/axis", "op": "Const", "attr": {"value": {"tensor": {"dtype": "DT_INT32", "tensorShape": {}}}, "dtype": {"type": "DT_INT32"}}}, {"name": "StatefulPartitionedCall/mobilebert/encoder/layer_._23/attention/self/value/Tensordot/Const_1", "op": "Const", "attr": {"dtype": {"type": "DT_INT32"}, "value": {"tensor": {"dtype": "DT_INT32", "tensorShape": {"dim": [{"size": "1"}]}}}}}, {"name": "StatefulPartitionedCall/mobilebert/encoder/layer_._23/attention/self/value/Tensordot/ReadVariableOp", "op": "Const", "attr": {"value": {"tensor": {"dtype": "DT_FLOAT", "tensorShape": {"dim": [{"size": "512"}, {"size": "128"}]}}}, "dtype": {"type": "DT_FLOAT"}}}, {"name": "StatefulPartitionedCall/mobilebert/encoder/layer_._23/attention/self/value/Tensordot/free", "op": "Const", "attr": {"dtype": {"type": "DT_INT32"}, "value": {"tensor": {"dtype": "DT_INT32", "tensorShape": {"dim": [{"size": "2"}]}}}}}, {"name": "StatefulPartitionedCall/mobilebert/encoder/layer_._23/attention/self/value/Tensordot/GatherV2/axis", "op": "Const", "attr": {"dtype": {"type": "DT_INT32"}, "value": {"tensor": {"dtype": "DT_INT32", "tensorShape": {}}}}}, {"name": "StatefulPartitionedCall/mobilebert/encoder/layer_._23/attention/self/value/Tensordot/Const_2", "op": "Const", "attr": {"value": {"tensor": {"dtype": "DT_INT32", "tensorShape": {"dim": [{"size": "1"}]}}}, "dtype": {"type": "DT_INT32"}}}, {"name": "StatefulPartitionedCall/mobilebert/encoder/layer_._23/attention/self/value/Tensordot/concat_1/axis", "op": "Const", "attr": {"value": {"tensor": {"dtype": "DT_INT32", "tensorShape": {}}}, "dtype": {"type": "DT_INT32"}}}, {"name": "StatefulPartitionedCall/mobilebert/encoder/layer_._23/attention/self/value/BiasAdd/ReadVariableOp", "op": "Const", "attr": {"dtype": {"type": "DT_FLOAT"}, "value": {"tensor": {"dtype": "DT_FLOAT", "tensorShape": {"dim": [{"size": "128"}]}}}}}, {"name": "StatefulPartitionedCall/mobilebert/encoder/layer_._23/attention/self/Reshape_2/shape/1", "op": "Const", "attr": {"value": {"tensor": {"dtype": "DT_INT32", "tensorShape": {}}}, "dtype": {"type": "DT_INT32"}}}, {"name": "StatefulPartitionedCall/mobilebert/encoder/layer_._23/attention/self/Reshape_2/shape/2", "op": "Const", "attr": {"dtype": {"type": "DT_INT32"}, "value": {"tensor": {"dtype": "DT_INT32", "tensorShape": {}}}}}, {"name": "StatefulPartitionedCall/mobilebert/encoder/layer_._23/attention/self/Reshape_2/shape/3", "op": "Const", "attr": {"dtype": {"type": "DT_INT32"}, "value": {"tensor": {"dtype": "DT_INT32", "tensorShape": {}}}}}, {"name": "StatefulPartitionedCall/mobilebert/encoder/layer_._23/attention/self/transpose_2/perm", "op": "Const", "attr": {"dtype": {"type": "DT_INT32"}, "value": {"tensor": {"dtype": "DT_INT32", "tensorShape": {"dim": [{"size": "4"}]}}}}}, {"name": "StatefulPartitionedCall/mobilebert/encoder/layer_._23/attention/self/transpose_3/perm", "op": "Const", "attr": {"dtype": {"type": "DT_INT32"}, "value": {"tensor": {"dtype": "DT_INT32", "tensorShape": {"dim": [{"size": "4"}]}}}}}, {"name": "StatefulPartitionedCall/mobilebert/encoder/layer_._23/attention/self/strided_slice/stack", "op": "Const", "attr": {"dtype": {"type": "DT_INT32"}, "value": {"tensor": {"dtype": "DT_INT32", "tensorShape": {"dim": [{"size": "1"}]}}}}}, {"name": "StatefulPartitionedCall/mobilebert/encoder/layer_._23/attention/self/strided_slice/stack_1", "op": "Const", "attr": {"value": {"tensor": {"dtype": "DT_INT32", "tensorShape": {"dim": [{"size": "1"}]}}}, "dtype": {"type": "DT_INT32"}}}, {"name": "StatefulPartitionedCall/mobilebert/encoder/layer_._23/attention/self/strided_slice/stack_2", "op": "Const", "attr": {"value": {"tensor": {"dtype": "DT_INT32", "tensorShape": {"dim": [{"size": "1"}]}}}, "dtype": {"type": "DT_INT32"}}}, {"name": "StatefulPartitionedCall/mobilebert/encoder/layer_._23/attention/self/Reshape_3/shape/1", "op": "Const", "attr": {"dtype": {"type": "DT_INT32"}, "value": {"tensor": {"dtype": "DT_INT32", "tensorShape": {}}}}}, {"name": "StatefulPartitionedCall/mobilebert/encoder/layer_._23/attention/self/Reshape_3/shape/2", "op": "Const", "attr": {"value": {"tensor": {"dtype": "DT_INT32", "tensorShape": {}}}, "dtype": {"type": "DT_INT32"}}}, {"name": "StatefulPartitionedCall/mobilebert/encoder/layer_._23/attention/output/dense/Tensordot/free", "op": "Const", "attr": {"value": {"tensor": {"dtype": "DT_INT32", "tensorShape": {"dim": [{"size": "2"}]}}}, "dtype": {"type": "DT_INT32"}}}, {"name": "StatefulPartitionedCall/mobilebert/encoder/layer_._23/attention/output/dense/Tensordot/GatherV2/axis", "op": "Const", "attr": {"value": {"tensor": {"dtype": "DT_INT32", "tensorShape": {}}}, "dtype": {"type": "DT_INT32"}}}, {"name": "StatefulPartitionedCall/mobilebert/encoder/layer_._23/attention/output/dense/Tensordot/Const_2", "op": "Const", "attr": {"dtype": {"type": "DT_INT32"}, "value": {"tensor": {"dtype": "DT_INT32", "tensorShape": {"dim": [{"size": "1"}]}}}}}, {"name": "StatefulPartitionedCall/mobilebert/encoder/layer_._23/attention/output/dense/Tensordot/concat_1/axis", "op": "Const", "attr": {"value": {"tensor": {"dtype": "DT_INT32", "tensorShape": {}}}, "dtype": {"type": "DT_INT32"}}}, {"name": "StatefulPartitionedCall/mobilebert/encoder/layer_._23/attention/output/dense/BiasAdd/ReadVariableOp", "op": "Const", "attr": {"dtype": {"type": "DT_FLOAT"}, "value": {"tensor": {"dtype": "DT_FLOAT", "tensorShape": {"dim": [{"size": "128"}]}}}}}, {"name": "StatefulPartitionedCall/mobilebert/encoder/layer_._23/bottleneck/input/dense/Tensordot/Const", "op": "Const", "attr": {"dtype": {"type": "DT_INT32"}, "value": {"tensor": {"dtype": "DT_INT32", "tensorShape": {"dim": [{"size": "1"}]}}}}}, {"name": "StatefulPartitionedCall/mobilebert/encoder/layer_._23/bottleneck/input/dense/Tensordot/axes", "op": "Const", "attr": {"value": {"tensor": {"dtype": "DT_INT32", "tensorShape": {"dim": [{"size": "1"}]}}}, "dtype": {"type": "DT_INT32"}}}, {"name": "StatefulPartitionedCall/mobilebert/encoder/layer_._23/bottleneck/input/dense/Tensordot/GatherV2_1/axis", "op": "Const", "attr": {"dtype": {"type": "DT_INT32"}, "value": {"tensor": {"dtype": "DT_INT32", "tensorShape": {}}}}}, {"name": "StatefulPartitionedCall/mobilebert/encoder/layer_._23/bottleneck/input/dense/Tensordot/Const_1", "op": "Const", "attr": {"value": {"tensor": {"dtype": "DT_INT32", "tensorShape": {"dim": [{"size": "1"}]}}}, "dtype": {"type": "DT_INT32"}}}, {"name": "StatefulPartitionedCall/mobilebert/encoder/layer_._23/bottleneck/input/dense/Tensordot/ReadVariableOp", "op": "Const", "attr": {"dtype": {"type": "DT_FLOAT"}, "value": {"tensor": {"dtype": "DT_FLOAT", "tensorShape": {"dim": [{"size": "512"}, {"size": "128"}]}}}}}, {"name": "StatefulPartitionedCall/mobilebert/encoder/layer_._23/bottleneck/input/dense/Tensordot/free", "op": "Const", "attr": {"value": {"tensor": {"dtype": "DT_INT32", "tensorShape": {"dim": [{"size": "2"}]}}}, "dtype": {"type": "DT_INT32"}}}, {"name": "StatefulPartitionedCall/mobilebert/encoder/layer_._23/bottleneck/input/dense/Tensordot/GatherV2/axis", "op": "Const", "attr": {"dtype": {"type": "DT_INT32"}, "value": {"tensor": {"dtype": "DT_INT32", "tensorShape": {}}}}}, {"name": "StatefulPartitionedCall/mobilebert/encoder/layer_._23/bottleneck/input/dense/Tensordot/Const_2", "op": "Const", "attr": {"value": {"tensor": {"dtype": "DT_INT32", "tensorShape": {"dim": [{"size": "1"}]}}}, "dtype": {"type": "DT_INT32"}}}, {"name": "StatefulPartitionedCall/mobilebert/encoder/layer_._23/bottleneck/input/dense/Tensordot/concat_1/axis", "op": "Const", "attr": {"dtype": {"type": "DT_INT32"}, "value": {"tensor": {"dtype": "DT_INT32", "tensorShape": {}}}}}, {"name": "StatefulPartitionedCall/mobilebert/encoder/layer_._23/bottleneck/input/dense/BiasAdd/ReadVariableOp", "op": "Const", "attr": {"dtype": {"type": "DT_FLOAT"}, "value": {"tensor": {"dtype": "DT_FLOAT", "tensorShape": {"dim": [{"size": "128"}]}}}}}, {"name": "StatefulPartitionedCall/mobilebert/encoder/layer_._23/bottleneck/input/LayerNorm/mul/ReadVariableOp", "op": "Const", "attr": {"dtype": {"type": "DT_FLOAT"}, "value": {"tensor": {"dtype": "DT_FLOAT", "tensorShape": {"dim": [{"size": "128"}]}}}}}, {"name": "StatefulPartitionedCall/mobilebert/encoder/layer_._23/bottleneck/input/LayerNorm/add/ReadVariableOp", "op": "Const", "attr": {"value": {"tensor": {"dtype": "DT_FLOAT", "tensorShape": {"dim": [{"size": "128"}]}}}, "dtype": {"type": "DT_FLOAT"}}}, {"name": "StatefulPartitionedCall/mobilebert/encoder/layer_._23/attention/output/LayerNorm/mul/ReadVariableOp", "op": "Const", "attr": {"dtype": {"type": "DT_FLOAT"}, "value": {"tensor": {"dtype": "DT_FLOAT", "tensorShape": {"dim": [{"size": "128"}]}}}}}, {"name": "StatefulPartitionedCall/mobilebert/encoder/layer_._23/attention/output/LayerNorm/add/ReadVariableOp", "op": "Const", "attr": {"dtype": {"type": "DT_FLOAT"}, "value": {"tensor": {"dtype": "DT_FLOAT", "tensorShape": {"dim": [{"size": "128"}]}}}}}, {"name": "StatefulPartitionedCall/mobilebert/encoder/layer_._23/ffn.0/output/LayerNorm/mul/ReadVariableOp", "op": "Const", "attr": {"dtype": {"type": "DT_FLOAT"}, "value": {"tensor": {"dtype": "DT_FLOAT", "tensorShape": {"dim": [{"size": "128"}]}}}}}, {"name": "StatefulPartitionedCall/mobilebert/encoder/layer_._23/ffn.0/output/LayerNorm/add/ReadVariableOp", "op": "Const", "attr": {"dtype": {"type": "DT_FLOAT"}, "value": {"tensor": {"dtype": "DT_FLOAT", "tensorShape": {"dim": [{"size": "128"}]}}}}}, {"name": "StatefulPartitionedCall/mobilebert/encoder/layer_._23/ffn.1/output/LayerNorm/mul/ReadVariableOp", "op": "Const", "attr": {"value": {"tensor": {"dtype": "DT_FLOAT", "tensorShape": {"dim": [{"size": "128"}]}}}, "dtype": {"type": "DT_FLOAT"}}}, {"name": "StatefulPartitionedCall/mobilebert/encoder/layer_._23/ffn.1/output/LayerNorm/add/ReadVariableOp", "op": "Const", "attr": {"value": {"tensor": {"dtype": "DT_FLOAT", "tensorShape": {"dim": [{"size": "128"}]}}}, "dtype": {"type": "DT_FLOAT"}}}, {"name": "StatefulPartitionedCall/mobilebert/encoder/layer_._23/ffn.2/output/LayerNorm/mul/ReadVariableOp", "op": "Const", "attr": {"value": {"tensor": {"dtype": "DT_FLOAT", "tensorShape": {"dim": [{"size": "128"}]}}}, "dtype": {"type": "DT_FLOAT"}}}, {"name": "StatefulPartitionedCall/mobilebert/encoder/layer_._23/ffn.2/output/LayerNorm/add/ReadVariableOp", "op": "Const", "attr": {"value": {"tensor": {"dtype": "DT_FLOAT", "tensorShape": {"dim": [{"size": "128"}]}}}, "dtype": {"type": "DT_FLOAT"}}}, {"name": "StatefulPartitionedCall/mobilebert/encoder/layer_._23/output/LayerNorm/mul/ReadVariableOp", "op": "Const", "attr": {"dtype": {"type": "DT_FLOAT"}, "value": {"tensor": {"dtype": "DT_FLOAT", "tensorShape": {"dim": [{"size": "128"}]}}}}}, {"name": "StatefulPartitionedCall/mobilebert/encoder/layer_._23/output/LayerNorm/add/ReadVariableOp", "op": "Const", "attr": {"value": {"tensor": {"dtype": "DT_FLOAT", "tensorShape": {"dim": [{"size": "128"}]}}}, "dtype": {"type": "DT_FLOAT"}}}, {"name": "StatefulPartitionedCall/mobilebert/encoder/layer_._23/output/bottleneck/dense/Tensordot/free", "op": "Const", "attr": {"value": {"tensor": {"dtype": "DT_INT32", "tensorShape": {"dim": [{"size": "2"}]}}}, "dtype": {"type": "DT_INT32"}}}, {"name": "StatefulPartitionedCall/mobilebert/encoder/layer_._23/output/bottleneck/dense/Tensordot/GatherV2/axis", "op": "Const", "attr": {"value": {"tensor": {"dtype": "DT_INT32", "tensorShape": {}}}, "dtype": {"type": "DT_INT32"}}}, {"name": "StatefulPartitionedCall/mobilebert/encoder/layer_._23/output/bottleneck/dense/Tensordot/Const_2", "op": "Const", "attr": {"dtype": {"type": "DT_INT32"}, "value": {"tensor": {"dtype": "DT_INT32", "tensorShape": {"dim": [{"size": "1"}]}}}}}, {"name": "StatefulPartitionedCall/mobilebert/encoder/layer_._23/output/bottleneck/dense/Tensordot/concat_1/axis", "op": "Const", "attr": {"value": {"tensor": {"dtype": "DT_INT32", "tensorShape": {}}}, "dtype": {"type": "DT_INT32"}}}, {"name": "StatefulPartitionedCall/mobilebert/encoder/layer_._23/output/bottleneck/dense/BiasAdd/ReadVariableOp", "op": "Const", "attr": {"value": {"tensor": {"dtype": "DT_FLOAT", "tensorShape": {"dim": [{"size": "512"}]}}}, "dtype": {"type": "DT_FLOAT"}}}, {"name": "StatefulPartitionedCall/mobilebert/encoder/layer_._22/output/bottleneck/dense/Tensordot/Const", "op": "Const", "attr": {"dtype": {"type": "DT_INT32"}, "value": {"tensor": {"dtype": "DT_INT32", "tensorShape": {"dim": [{"size": "1"}]}}}}}, {"name": "StatefulPartitionedCall/mobilebert/encoder/layer_._22/output/bottleneck/dense/Tensordot/axes", "op": "Const", "attr": {"dtype": {"type": "DT_INT32"}, "value": {"tensor": {"dtype": "DT_INT32", "tensorShape": {"dim": [{"size": "1"}]}}}}}, {"name": "StatefulPartitionedCall/mobilebert/encoder/layer_._22/output/bottleneck/dense/Tensordot/GatherV2_1/axis", "op": "Const", "attr": {"value": {"tensor": {"dtype": "DT_INT32", "tensorShape": {}}}, "dtype": {"type": "DT_INT32"}}}, {"name": "StatefulPartitionedCall/mobilebert/encoder/layer_._22/output/bottleneck/dense/Tensordot/Const_1", "op": "Const", "attr": {"value": {"tensor": {"dtype": "DT_INT32", "tensorShape": {"dim": [{"size": "1"}]}}}, "dtype": {"type": "DT_INT32"}}}, {"name": "StatefulPartitionedCall/mobilebert/encoder/layer_._22/output/bottleneck/dense/Tensordot/ReadVariableOp", "op": "Const", "attr": {"value": {"tensor": {"dtype": "DT_FLOAT", "tensorShape": {"dim": [{"size": "128"}, {"size": "512"}]}}}, "dtype": {"type": "DT_FLOAT"}}}, {"name": "StatefulPartitionedCall/mobilebert/encoder/layer_._22/output/dense/Tensordot/Const", "op": "Const", "attr": {"value": {"tensor": {"dtype": "DT_INT32", "tensorShape": {"dim": [{"size": "1"}]}}}, "dtype": {"type": "DT_INT32"}}}, {"name": "StatefulPartitionedCall/mobilebert/encoder/layer_._22/output/dense/Tensordot/axes", "op": "Const", "attr": {"dtype": {"type": "DT_INT32"}, "value": {"tensor": {"dtype": "DT_INT32", "tensorShape": {"dim": [{"size": "1"}]}}}}}, {"name": "StatefulPartitionedCall/mobilebert/encoder/layer_._22/output/dense/Tensordot/GatherV2_1/axis", "op": "Const", "attr": {"dtype": {"type": "DT_INT32"}, "value": {"tensor": {"dtype": "DT_INT32", "tensorShape": {}}}}}, {"name": "StatefulPartitionedCall/mobilebert/encoder/layer_._22/output/dense/Tensordot/Const_1", "op": "Const", "attr": {"value": {"tensor": {"dtype": "DT_INT32", "tensorShape": {"dim": [{"size": "1"}]}}}, "dtype": {"type": "DT_INT32"}}}, {"name": "StatefulPartitionedCall/mobilebert/encoder/layer_._22/output/dense/Tensordot/ReadVariableOp", "op": "Const", "attr": {"value": {"tensor": {"dtype": "DT_FLOAT", "tensorShape": {"dim": [{"size": "512"}, {"size": "128"}]}}}, "dtype": {"type": "DT_FLOAT"}}}, {"name": "StatefulPartitionedCall/mobilebert/encoder/layer_._22/intermediate/dense/Tensordot/Const", "op": "Const", "attr": {"value": {"tensor": {"dtype": "DT_INT32", "tensorShape": {"dim": [{"size": "1"}]}}}, "dtype": {"type": "DT_INT32"}}}, {"name": "StatefulPartitionedCall/mobilebert/encoder/layer_._22/intermediate/dense/Tensordot/axes", "op": "Const", "attr": {"dtype": {"type": "DT_INT32"}, "value": {"tensor": {"dtype": "DT_INT32", "tensorShape": {"dim": [{"size": "1"}]}}}}}, {"name": "StatefulPartitionedCall/mobilebert/encoder/layer_._22/intermediate/dense/Tensordot/GatherV2_1/axis", "op": "Const", "attr": {"dtype": {"type": "DT_INT32"}, "value": {"tensor": {"dtype": "DT_INT32", "tensorShape": {}}}}}, {"name": "StatefulPartitionedCall/mobilebert/encoder/layer_._22/intermediate/dense/Tensordot/Const_1", "op": "Const", "attr": {"value": {"tensor": {"dtype": "DT_INT32", "tensorShape": {"dim": [{"size": "1"}]}}}, "dtype": {"type": "DT_INT32"}}}, {"name": "StatefulPartitionedCall/mobilebert/encoder/layer_._22/intermediate/dense/Tensordot/ReadVariableOp", "op": "Const", "attr": {"value": {"tensor": {"dtype": "DT_FLOAT", "tensorShape": {"dim": [{"size": "128"}, {"size": "512"}]}}}, "dtype": {"type": "DT_FLOAT"}}}, {"name": "StatefulPartitionedCall/mobilebert/encoder/layer_._22/intermediate/dense/Tensordot/free", "op": "Const", "attr": {"value": {"tensor": {"dtype": "DT_INT32", "tensorShape": {"dim": [{"size": "2"}]}}}, "dtype": {"type": "DT_INT32"}}}, {"name": "StatefulPartitionedCall/mobilebert/encoder/layer_._22/intermediate/dense/Tensordot/GatherV2/axis", "op": "Const", "attr": {"value": {"tensor": {"dtype": "DT_INT32", "tensorShape": {}}}, "dtype": {"type": "DT_INT32"}}}, {"name": "StatefulPartitionedCall/mobilebert/encoder/layer_._22/intermediate/dense/Tensordot/Const_2", "op": "Const", "attr": {"value": {"tensor": {"dtype": "DT_INT32", "tensorShape": {"dim": [{"size": "1"}]}}}, "dtype": {"type": "DT_INT32"}}}, {"name": "StatefulPartitionedCall/mobilebert/encoder/layer_._22/intermediate/dense/Tensordot/concat_1/axis", "op": "Const", "attr": {"value": {"tensor": {"dtype": "DT_INT32", "tensorShape": {}}}, "dtype": {"type": "DT_INT32"}}}, {"name": "StatefulPartitionedCall/mobilebert/encoder/layer_._22/intermediate/dense/BiasAdd/ReadVariableOp", "op": "Const", "attr": {"dtype": {"type": "DT_FLOAT"}, "value": {"tensor": {"dtype": "DT_FLOAT", "tensorShape": {"dim": [{"size": "512"}]}}}}}, {"name": "StatefulPartitionedCall/mobilebert/encoder/layer_._22/output/dense/Tensordot/free", "op": "Const", "attr": {"value": {"tensor": {"dtype": "DT_INT32", "tensorShape": {"dim": [{"size": "2"}]}}}, "dtype": {"type": "DT_INT32"}}}, {"name": "StatefulPartitionedCall/mobilebert/encoder/layer_._22/output/dense/Tensordot/GatherV2/axis", "op": "Const", "attr": {"value": {"tensor": {"dtype": "DT_INT32", "tensorShape": {}}}, "dtype": {"type": "DT_INT32"}}}, {"name": "StatefulPartitionedCall/mobilebert/encoder/layer_._22/output/dense/Tensordot/Const_2", "op": "Const", "attr": {"value": {"tensor": {"dtype": "DT_INT32", "tensorShape": {"dim": [{"size": "1"}]}}}, "dtype": {"type": "DT_INT32"}}}, {"name": "StatefulPartitionedCall/mobilebert/encoder/layer_._22/output/dense/Tensordot/concat_1/axis", "op": "Const", "attr": {"value": {"tensor": {"dtype": "DT_INT32", "tensorShape": {}}}, "dtype": {"type": "DT_INT32"}}}, {"name": "StatefulPartitionedCall/mobilebert/encoder/layer_._22/output/dense/BiasAdd/ReadVariableOp", "op": "Const", "attr": {"value": {"tensor": {"dtype": "DT_FLOAT", "tensorShape": {"dim": [{"size": "128"}]}}}, "dtype": {"type": "DT_FLOAT"}}}, {"name": "StatefulPartitionedCall/mobilebert/encoder/layer_._22/ffn.2/output/dense/Tensordot/Const", "op": "Const", "attr": {"dtype": {"type": "DT_INT32"}, "value": {"tensor": {"dtype": "DT_INT32", "tensorShape": {"dim": [{"size": "1"}]}}}}}, {"name": "StatefulPartitionedCall/mobilebert/encoder/layer_._22/ffn.2/output/dense/Tensordot/axes", "op": "Const", "attr": {"value": {"tensor": {"dtype": "DT_INT32", "tensorShape": {"dim": [{"size": "1"}]}}}, "dtype": {"type": "DT_INT32"}}}, {"name": "StatefulPartitionedCall/mobilebert/encoder/layer_._22/ffn.2/output/dense/Tensordot/GatherV2_1/axis", "op": "Const", "attr": {"value": {"tensor": {"dtype": "DT_INT32", "tensorShape": {}}}, "dtype": {"type": "DT_INT32"}}}, {"name": "StatefulPartitionedCall/mobilebert/encoder/layer_._22/ffn.2/output/dense/Tensordot/Const_1", "op": "Const", "attr": {"value": {"tensor": {"dtype": "DT_INT32", "tensorShape": {"dim": [{"size": "1"}]}}}, "dtype": {"type": "DT_INT32"}}}, {"name": "StatefulPartitionedCall/mobilebert/encoder/layer_._22/ffn.2/output/dense/Tensordot/ReadVariableOp", "op": "Const", "attr": {"value": {"tensor": {"dtype": "DT_FLOAT", "tensorShape": {"dim": [{"size": "512"}, {"size": "128"}]}}}, "dtype": {"type": "DT_FLOAT"}}}, {"name": "StatefulPartitionedCall/mobilebert/encoder/layer_._22/ffn.2/intermediate/dense/Tensordot/Const", "op": "Const", "attr": {"value": {"tensor": {"dtype": "DT_INT32", "tensorShape": {"dim": [{"size": "1"}]}}}, "dtype": {"type": "DT_INT32"}}}, {"name": "StatefulPartitionedCall/mobilebert/encoder/layer_._22/ffn.2/intermediate/dense/Tensordot/axes", "op": "Const", "attr": {"value": {"tensor": {"dtype": "DT_INT32", "tensorShape": {"dim": [{"size": "1"}]}}}, "dtype": {"type": "DT_INT32"}}}, {"name": "StatefulPartitionedCall/mobilebert/encoder/layer_._22/ffn.2/intermediate/dense/Tensordot/GatherV2_1/axis", "op": "Const", "attr": {"value": {"tensor": {"dtype": "DT_INT32", "tensorShape": {}}}, "dtype": {"type": "DT_INT32"}}}, {"name": "StatefulPartitionedCall/mobilebert/encoder/layer_._22/ffn.2/intermediate/dense/Tensordot/Const_1", "op": "Const", "attr": {"value": {"tensor": {"dtype": "DT_INT32", "tensorShape": {"dim": [{"size": "1"}]}}}, "dtype": {"type": "DT_INT32"}}}, {"name": "StatefulPartitionedCall/mobilebert/encoder/layer_._22/ffn.2/intermediate/dense/Tensordot/ReadVariableOp", "op": "Const", "attr": {"value": {"tensor": {"dtype": "DT_FLOAT", "tensorShape": {"dim": [{"size": "128"}, {"size": "512"}]}}}, "dtype": {"type": "DT_FLOAT"}}}, {"name": "StatefulPartitionedCall/mobilebert/encoder/layer_._22/ffn.2/intermediate/dense/Tensordot/free", "op": "Const", "attr": {"value": {"tensor": {"dtype": "DT_INT32", "tensorShape": {"dim": [{"size": "2"}]}}}, "dtype": {"type": "DT_INT32"}}}, {"name": "StatefulPartitionedCall/mobilebert/encoder/layer_._22/ffn.2/intermediate/dense/Tensordot/GatherV2/axis", "op": "Const", "attr": {"dtype": {"type": "DT_INT32"}, "value": {"tensor": {"dtype": "DT_INT32", "tensorShape": {}}}}}, {"name": "StatefulPartitionedCall/mobilebert/encoder/layer_._22/ffn.2/intermediate/dense/Tensordot/Const_2", "op": "Const", "attr": {"value": {"tensor": {"dtype": "DT_INT32", "tensorShape": {"dim": [{"size": "1"}]}}}, "dtype": {"type": "DT_INT32"}}}, {"name": "StatefulPartitionedCall/mobilebert/encoder/layer_._22/ffn.2/intermediate/dense/Tensordot/concat_1/axis", "op": "Const", "attr": {"value": {"tensor": {"dtype": "DT_INT32", "tensorShape": {}}}, "dtype": {"type": "DT_INT32"}}}, {"name": "StatefulPartitionedCall/mobilebert/encoder/layer_._22/ffn.2/intermediate/dense/BiasAdd/ReadVariableOp", "op": "Const", "attr": {"value": {"tensor": {"dtype": "DT_FLOAT", "tensorShape": {"dim": [{"size": "512"}]}}}, "dtype": {"type": "DT_FLOAT"}}}, {"name": "StatefulPartitionedCall/mobilebert/encoder/layer_._22/ffn.2/output/dense/Tensordot/free", "op": "Const", "attr": {"value": {"tensor": {"dtype": "DT_INT32", "tensorShape": {"dim": [{"size": "2"}]}}}, "dtype": {"type": "DT_INT32"}}}, {"name": "StatefulPartitionedCall/mobilebert/encoder/layer_._22/ffn.2/output/dense/Tensordot/GatherV2/axis", "op": "Const", "attr": {"value": {"tensor": {"dtype": "DT_INT32", "tensorShape": {}}}, "dtype": {"type": "DT_INT32"}}}, {"name": "StatefulPartitionedCall/mobilebert/encoder/layer_._22/ffn.2/output/dense/Tensordot/Const_2", "op": "Const", "attr": {"value": {"tensor": {"dtype": "DT_INT32", "tensorShape": {"dim": [{"size": "1"}]}}}, "dtype": {"type": "DT_INT32"}}}, {"name": "StatefulPartitionedCall/mobilebert/encoder/layer_._22/ffn.2/output/dense/Tensordot/concat_1/axis", "op": "Const", "attr": {"value": {"tensor": {"dtype": "DT_INT32", "tensorShape": {}}}, "dtype": {"type": "DT_INT32"}}}, {"name": "StatefulPartitionedCall/mobilebert/encoder/layer_._22/ffn.2/output/dense/BiasAdd/ReadVariableOp", "op": "Const", "attr": {"value": {"tensor": {"dtype": "DT_FLOAT", "tensorShape": {"dim": [{"size": "128"}]}}}, "dtype": {"type": "DT_FLOAT"}}}, {"name": "StatefulPartitionedCall/mobilebert/encoder/layer_._22/ffn.1/output/dense/Tensordot/Const", "op": "Const", "attr": {"dtype": {"type": "DT_INT32"}, "value": {"tensor": {"dtype": "DT_INT32", "tensorShape": {"dim": [{"size": "1"}]}}}}}, {"name": "StatefulPartitionedCall/mobilebert/encoder/layer_._22/ffn.1/output/dense/Tensordot/axes", "op": "Const", "attr": {"value": {"tensor": {"dtype": "DT_INT32", "tensorShape": {"dim": [{"size": "1"}]}}}, "dtype": {"type": "DT_INT32"}}}, {"name": "StatefulPartitionedCall/mobilebert/encoder/layer_._22/ffn.1/output/dense/Tensordot/GatherV2_1/axis", "op": "Const", "attr": {"value": {"tensor": {"dtype": "DT_INT32", "tensorShape": {}}}, "dtype": {"type": "DT_INT32"}}}, {"name": "StatefulPartitionedCall/mobilebert/encoder/layer_._22/ffn.1/output/dense/Tensordot/Const_1", "op": "Const", "attr": {"value": {"tensor": {"dtype": "DT_INT32", "tensorShape": {"dim": [{"size": "1"}]}}}, "dtype": {"type": "DT_INT32"}}}, {"name": "StatefulPartitionedCall/mobilebert/encoder/layer_._22/ffn.1/output/dense/Tensordot/ReadVariableOp", "op": "Const", "attr": {"dtype": {"type": "DT_FLOAT"}, "value": {"tensor": {"dtype": "DT_FLOAT", "tensorShape": {"dim": [{"size": "512"}, {"size": "128"}]}}}}}, {"name": "StatefulPartitionedCall/mobilebert/encoder/layer_._22/ffn.1/intermediate/dense/Tensordot/Const", "op": "Const", "attr": {"value": {"tensor": {"dtype": "DT_INT32", "tensorShape": {"dim": [{"size": "1"}]}}}, "dtype": {"type": "DT_INT32"}}}, {"name": "StatefulPartitionedCall/mobilebert/encoder/layer_._22/ffn.1/intermediate/dense/Tensordot/axes", "op": "Const", "attr": {"dtype": {"type": "DT_INT32"}, "value": {"tensor": {"dtype": "DT_INT32", "tensorShape": {"dim": [{"size": "1"}]}}}}}, {"name": "StatefulPartitionedCall/mobilebert/encoder/layer_._22/ffn.1/intermediate/dense/Tensordot/GatherV2_1/axis", "op": "Const", "attr": {"dtype": {"type": "DT_INT32"}, "value": {"tensor": {"dtype": "DT_INT32", "tensorShape": {}}}}}, {"name": "StatefulPartitionedCall/mobilebert/encoder/layer_._22/ffn.1/intermediate/dense/Tensordot/Const_1", "op": "Const", "attr": {"dtype": {"type": "DT_INT32"}, "value": {"tensor": {"dtype": "DT_INT32", "tensorShape": {"dim": [{"size": "1"}]}}}}}, {"name": "StatefulPartitionedCall/mobilebert/encoder/layer_._22/ffn.1/intermediate/dense/Tensordot/ReadVariableOp", "op": "Const", "attr": {"dtype": {"type": "DT_FLOAT"}, "value": {"tensor": {"dtype": "DT_FLOAT", "tensorShape": {"dim": [{"size": "128"}, {"size": "512"}]}}}}}, {"name": "StatefulPartitionedCall/mobilebert/encoder/layer_._22/ffn.1/intermediate/dense/Tensordot/free", "op": "Const", "attr": {"value": {"tensor": {"dtype": "DT_INT32", "tensorShape": {"dim": [{"size": "2"}]}}}, "dtype": {"type": "DT_INT32"}}}, {"name": "StatefulPartitionedCall/mobilebert/encoder/layer_._22/ffn.1/intermediate/dense/Tensordot/GatherV2/axis", "op": "Const", "attr": {"value": {"tensor": {"dtype": "DT_INT32", "tensorShape": {}}}, "dtype": {"type": "DT_INT32"}}}, {"name": "StatefulPartitionedCall/mobilebert/encoder/layer_._22/ffn.1/intermediate/dense/Tensordot/Const_2", "op": "Const", "attr": {"value": {"tensor": {"dtype": "DT_INT32", "tensorShape": {"dim": [{"size": "1"}]}}}, "dtype": {"type": "DT_INT32"}}}, {"name": "StatefulPartitionedCall/mobilebert/encoder/layer_._22/ffn.1/intermediate/dense/Tensordot/concat_1/axis", "op": "Const", "attr": {"value": {"tensor": {"dtype": "DT_INT32", "tensorShape": {}}}, "dtype": {"type": "DT_INT32"}}}, {"name": "StatefulPartitionedCall/mobilebert/encoder/layer_._22/ffn.1/intermediate/dense/BiasAdd/ReadVariableOp", "op": "Const", "attr": {"value": {"tensor": {"dtype": "DT_FLOAT", "tensorShape": {"dim": [{"size": "512"}]}}}, "dtype": {"type": "DT_FLOAT"}}}, {"name": "StatefulPartitionedCall/mobilebert/encoder/layer_._22/ffn.1/output/dense/Tensordot/free", "op": "Const", "attr": {"value": {"tensor": {"dtype": "DT_INT32", "tensorShape": {"dim": [{"size": "2"}]}}}, "dtype": {"type": "DT_INT32"}}}, {"name": "StatefulPartitionedCall/mobilebert/encoder/layer_._22/ffn.1/output/dense/Tensordot/GatherV2/axis", "op": "Const", "attr": {"dtype": {"type": "DT_INT32"}, "value": {"tensor": {"dtype": "DT_INT32", "tensorShape": {}}}}}, {"name": "StatefulPartitionedCall/mobilebert/encoder/layer_._22/ffn.1/output/dense/Tensordot/Const_2", "op": "Const", "attr": {"dtype": {"type": "DT_INT32"}, "value": {"tensor": {"dtype": "DT_INT32", "tensorShape": {"dim": [{"size": "1"}]}}}}}, {"name": "StatefulPartitionedCall/mobilebert/encoder/layer_._22/ffn.1/output/dense/Tensordot/concat_1/axis", "op": "Const", "attr": {"dtype": {"type": "DT_INT32"}, "value": {"tensor": {"dtype": "DT_INT32", "tensorShape": {}}}}}, {"name": "StatefulPartitionedCall/mobilebert/encoder/layer_._22/ffn.1/output/dense/BiasAdd/ReadVariableOp", "op": "Const", "attr": {"dtype": {"type": "DT_FLOAT"}, "value": {"tensor": {"dtype": "DT_FLOAT", "tensorShape": {"dim": [{"size": "128"}]}}}}}, {"name": "StatefulPartitionedCall/mobilebert/encoder/layer_._22/ffn.0/output/dense/Tensordot/Const", "op": "Const", "attr": {"value": {"tensor": {"dtype": "DT_INT32", "tensorShape": {"dim": [{"size": "1"}]}}}, "dtype": {"type": "DT_INT32"}}}, {"name": "StatefulPartitionedCall/mobilebert/encoder/layer_._22/ffn.0/output/dense/Tensordot/axes", "op": "Const", "attr": {"dtype": {"type": "DT_INT32"}, "value": {"tensor": {"dtype": "DT_INT32", "tensorShape": {"dim": [{"size": "1"}]}}}}}, {"name": "StatefulPartitionedCall/mobilebert/encoder/layer_._22/ffn.0/output/dense/Tensordot/GatherV2_1/axis", "op": "Const", "attr": {"dtype": {"type": "DT_INT32"}, "value": {"tensor": {"dtype": "DT_INT32", "tensorShape": {}}}}}, {"name": "StatefulPartitionedCall/mobilebert/encoder/layer_._22/ffn.0/output/dense/Tensordot/Const_1", "op": "Const", "attr": {"dtype": {"type": "DT_INT32"}, "value": {"tensor": {"dtype": "DT_INT32", "tensorShape": {"dim": [{"size": "1"}]}}}}}, {"name": "StatefulPartitionedCall/mobilebert/encoder/layer_._22/ffn.0/output/dense/Tensordot/ReadVariableOp", "op": "Const", "attr": {"value": {"tensor": {"dtype": "DT_FLOAT", "tensorShape": {"dim": [{"size": "512"}, {"size": "128"}]}}}, "dtype": {"type": "DT_FLOAT"}}}, {"name": "StatefulPartitionedCall/mobilebert/encoder/layer_._22/ffn.0/intermediate/dense/Tensordot/Const", "op": "Const", "attr": {"dtype": {"type": "DT_INT32"}, "value": {"tensor": {"dtype": "DT_INT32", "tensorShape": {"dim": [{"size": "1"}]}}}}}, {"name": "StatefulPartitionedCall/mobilebert/encoder/layer_._22/ffn.0/intermediate/dense/Tensordot/axes", "op": "Const", "attr": {"dtype": {"type": "DT_INT32"}, "value": {"tensor": {"dtype": "DT_INT32", "tensorShape": {"dim": [{"size": "1"}]}}}}}, {"name": "StatefulPartitionedCall/mobilebert/encoder/layer_._22/ffn.0/intermediate/dense/Tensordot/GatherV2_1/axis", "op": "Const", "attr": {"dtype": {"type": "DT_INT32"}, "value": {"tensor": {"dtype": "DT_INT32", "tensorShape": {}}}}}, {"name": "StatefulPartitionedCall/mobilebert/encoder/layer_._22/ffn.0/intermediate/dense/Tensordot/Const_1", "op": "Const", "attr": {"value": {"tensor": {"dtype": "DT_INT32", "tensorShape": {"dim": [{"size": "1"}]}}}, "dtype": {"type": "DT_INT32"}}}, {"name": "StatefulPartitionedCall/mobilebert/encoder/layer_._22/ffn.0/intermediate/dense/Tensordot/ReadVariableOp", "op": "Const", "attr": {"dtype": {"type": "DT_FLOAT"}, "value": {"tensor": {"dtype": "DT_FLOAT", "tensorShape": {"dim": [{"size": "128"}, {"size": "512"}]}}}}}, {"name": "StatefulPartitionedCall/mobilebert/encoder/layer_._22/ffn.0/intermediate/dense/Tensordot/free", "op": "Const", "attr": {"dtype": {"type": "DT_INT32"}, "value": {"tensor": {"dtype": "DT_INT32", "tensorShape": {"dim": [{"size": "2"}]}}}}}, {"name": "StatefulPartitionedCall/mobilebert/encoder/layer_._22/ffn.0/intermediate/dense/Tensordot/GatherV2/axis", "op": "Const", "attr": {"value": {"tensor": {"dtype": "DT_INT32", "tensorShape": {}}}, "dtype": {"type": "DT_INT32"}}}, {"name": "StatefulPartitionedCall/mobilebert/encoder/layer_._22/ffn.0/intermediate/dense/Tensordot/Const_2", "op": "Const", "attr": {"value": {"tensor": {"dtype": "DT_INT32", "tensorShape": {"dim": [{"size": "1"}]}}}, "dtype": {"type": "DT_INT32"}}}, {"name": "StatefulPartitionedCall/mobilebert/encoder/layer_._22/ffn.0/intermediate/dense/Tensordot/concat_1/axis", "op": "Const", "attr": {"dtype": {"type": "DT_INT32"}, "value": {"tensor": {"dtype": "DT_INT32", "tensorShape": {}}}}}, {"name": "StatefulPartitionedCall/mobilebert/encoder/layer_._22/ffn.0/intermediate/dense/BiasAdd/ReadVariableOp", "op": "Const", "attr": {"value": {"tensor": {"dtype": "DT_FLOAT", "tensorShape": {"dim": [{"size": "512"}]}}}, "dtype": {"type": "DT_FLOAT"}}}, {"name": "StatefulPartitionedCall/mobilebert/encoder/layer_._22/ffn.0/output/dense/Tensordot/free", "op": "Const", "attr": {"value": {"tensor": {"dtype": "DT_INT32", "tensorShape": {"dim": [{"size": "2"}]}}}, "dtype": {"type": "DT_INT32"}}}, {"name": "StatefulPartitionedCall/mobilebert/encoder/layer_._22/ffn.0/output/dense/Tensordot/GatherV2/axis", "op": "Const", "attr": {"dtype": {"type": "DT_INT32"}, "value": {"tensor": {"dtype": "DT_INT32", "tensorShape": {}}}}}, {"name": "StatefulPartitionedCall/mobilebert/encoder/layer_._22/ffn.0/output/dense/Tensordot/Const_2", "op": "Const", "attr": {"dtype": {"type": "DT_INT32"}, "value": {"tensor": {"dtype": "DT_INT32", "tensorShape": {"dim": [{"size": "1"}]}}}}}, {"name": "StatefulPartitionedCall/mobilebert/encoder/layer_._22/ffn.0/output/dense/Tensordot/concat_1/axis", "op": "Const", "attr": {"dtype": {"type": "DT_INT32"}, "value": {"tensor": {"dtype": "DT_INT32", "tensorShape": {}}}}}, {"name": "StatefulPartitionedCall/mobilebert/encoder/layer_._22/ffn.0/output/dense/BiasAdd/ReadVariableOp", "op": "Const", "attr": {"dtype": {"type": "DT_FLOAT"}, "value": {"tensor": {"dtype": "DT_FLOAT", "tensorShape": {"dim": [{"size": "128"}]}}}}}, {"name": "StatefulPartitionedCall/mobilebert/encoder/layer_._22/attention/output/dense/Tensordot/Const", "op": "Const", "attr": {"dtype": {"type": "DT_INT32"}, "value": {"tensor": {"dtype": "DT_INT32", "tensorShape": {"dim": [{"size": "1"}]}}}}}, {"name": "StatefulPartitionedCall/mobilebert/encoder/layer_._22/attention/output/dense/Tensordot/axes", "op": "Const", "attr": {"value": {"tensor": {"dtype": "DT_INT32", "tensorShape": {"dim": [{"size": "1"}]}}}, "dtype": {"type": "DT_INT32"}}}, {"name": "StatefulPartitionedCall/mobilebert/encoder/layer_._22/attention/output/dense/Tensordot/GatherV2_1/axis", "op": "Const", "attr": {"value": {"tensor": {"dtype": "DT_INT32", "tensorShape": {}}}, "dtype": {"type": "DT_INT32"}}}, {"name": "StatefulPartitionedCall/mobilebert/encoder/layer_._22/attention/output/dense/Tensordot/Const_1", "op": "Const", "attr": {"value": {"tensor": {"dtype": "DT_INT32", "tensorShape": {"dim": [{"size": "1"}]}}}, "dtype": {"type": "DT_INT32"}}}, {"name": "StatefulPartitionedCall/mobilebert/encoder/layer_._22/attention/output/dense/Tensordot/ReadVariableOp", "op": "Const", "attr": {"dtype": {"type": "DT_FLOAT"}, "value": {"tensor": {"dtype": "DT_FLOAT", "tensorShape": {"dim": [{"size": "128"}, {"size": "128"}]}}}}}, {"name": "StatefulPartitionedCall/mobilebert/encoder/layer_._22/attention/self/query/Tensordot/Const", "op": "Const", "attr": {"dtype": {"type": "DT_INT32"}, "value": {"tensor": {"dtype": "DT_INT32", "tensorShape": {"dim": [{"size": "1"}]}}}}}, {"name": "StatefulPartitionedCall/mobilebert/encoder/layer_._22/attention/self/query/Tensordot/axes", "op": "Const", "attr": {"value": {"tensor": {"dtype": "DT_INT32", "tensorShape": {"dim": [{"size": "1"}]}}}, "dtype": {"type": "DT_INT32"}}}, {"name": "StatefulPartitionedCall/mobilebert/encoder/layer_._22/attention/self/query/Tensordot/GatherV2_1/axis", "op": "Const", "attr": {"dtype": {"type": "DT_INT32"}, "value": {"tensor": {"dtype": "DT_INT32", "tensorShape": {}}}}}, {"name": "StatefulPartitionedCall/mobilebert/encoder/layer_._22/attention/self/query/Tensordot/Const_1", "op": "Const", "attr": {"value": {"tensor": {"dtype": "DT_INT32", "tensorShape": {"dim": [{"size": "1"}]}}}, "dtype": {"type": "DT_INT32"}}}, {"name": "StatefulPartitionedCall/mobilebert/encoder/layer_._22/attention/self/query/Tensordot/ReadVariableOp", "op": "Const", "attr": {"dtype": {"type": "DT_FLOAT"}, "value": {"tensor": {"dtype": "DT_FLOAT", "tensorShape": {"dim": [{"size": "128"}, {"size": "128"}]}}}}}, {"name": "StatefulPartitionedCall/mobilebert/encoder/layer_._22/attention/self/query/Tensordot/free", "op": "Const", "attr": {"value": {"tensor": {"dtype": "DT_INT32", "tensorShape": {"dim": [{"size": "2"}]}}}, "dtype": {"type": "DT_INT32"}}}, {"name": "StatefulPartitionedCall/mobilebert/encoder/layer_._22/attention/self/query/Tensordot/GatherV2/axis", "op": "Const", "attr": {"dtype": {"type": "DT_INT32"}, "value": {"tensor": {"dtype": "DT_INT32", "tensorShape": {}}}}}, {"name": "StatefulPartitionedCall/mobilebert/encoder/layer_._22/attention/self/query/Tensordot/Const_2", "op": "Const", "attr": {"value": {"tensor": {"dtype": "DT_INT32", "tensorShape": {"dim": [{"size": "1"}]}}}, "dtype": {"type": "DT_INT32"}}}, {"name": "StatefulPartitionedCall/mobilebert/encoder/layer_._22/attention/self/query/Tensordot/concat_1/axis", "op": "Const", "attr": {"dtype": {"type": "DT_INT32"}, "value": {"tensor": {"dtype": "DT_INT32", "tensorShape": {}}}}}, {"name": "StatefulPartitionedCall/mobilebert/encoder/layer_._22/attention/self/query/BiasAdd/ReadVariableOp", "op": "Const", "attr": {"value": {"tensor": {"dtype": "DT_FLOAT", "tensorShape": {"dim": [{"size": "128"}]}}}, "dtype": {"type": "DT_FLOAT"}}}, {"name": "StatefulPartitionedCall/mobilebert/encoder/layer_._22/attention/self/Reshape/shape/1", "op": "Const", "attr": {"dtype": {"type": "DT_INT32"}, "value": {"tensor": {"dtype": "DT_INT32", "tensorShape": {}}}}}, {"name": "StatefulPartitionedCall/mobilebert/encoder/layer_._22/attention/self/Reshape/shape/2", "op": "Const", "attr": {"dtype": {"type": "DT_INT32"}, "value": {"tensor": {"dtype": "DT_INT32", "tensorShape": {}}}}}, {"name": "StatefulPartitionedCall/mobilebert/encoder/layer_._22/attention/self/Reshape/shape/3", "op": "Const", "attr": {"dtype": {"type": "DT_INT32"}, "value": {"tensor": {"dtype": "DT_INT32", "tensorShape": {}}}}}, {"name": "StatefulPartitionedCall/mobilebert/encoder/layer_._22/attention/self/transpose/perm", "op": "Const", "attr": {"dtype": {"type": "DT_INT32"}, "value": {"tensor": {"dtype": "DT_INT32", "tensorShape": {"dim": [{"size": "4"}]}}}}}, {"name": "StatefulPartitionedCall/mobilebert/encoder/layer_._22/attention/self/key/Tensordot/Const", "op": "Const", "attr": {"dtype": {"type": "DT_INT32"}, "value": {"tensor": {"dtype": "DT_INT32", "tensorShape": {"dim": [{"size": "1"}]}}}}}, {"name": "StatefulPartitionedCall/mobilebert/encoder/layer_._22/attention/self/key/Tensordot/axes", "op": "Const", "attr": {"value": {"tensor": {"dtype": "DT_INT32", "tensorShape": {"dim": [{"size": "1"}]}}}, "dtype": {"type": "DT_INT32"}}}, {"name": "StatefulPartitionedCall/mobilebert/encoder/layer_._22/attention/self/key/Tensordot/GatherV2_1/axis", "op": "Const", "attr": {"value": {"tensor": {"dtype": "DT_INT32", "tensorShape": {}}}, "dtype": {"type": "DT_INT32"}}}, {"name": "StatefulPartitionedCall/mobilebert/encoder/layer_._22/attention/self/key/Tensordot/Const_1", "op": "Const", "attr": {"value": {"tensor": {"dtype": "DT_INT32", "tensorShape": {"dim": [{"size": "1"}]}}}, "dtype": {"type": "DT_INT32"}}}, {"name": "StatefulPartitionedCall/mobilebert/encoder/layer_._22/attention/self/key/Tensordot/ReadVariableOp", "op": "Const", "attr": {"value": {"tensor": {"dtype": "DT_FLOAT", "tensorShape": {"dim": [{"size": "128"}, {"size": "128"}]}}}, "dtype": {"type": "DT_FLOAT"}}}, {"name": "StatefulPartitionedCall/mobilebert/encoder/layer_._22/bottleneck/attention/dense/Tensordot/Const", "op": "Const", "attr": {"value": {"tensor": {"dtype": "DT_INT32", "tensorShape": {"dim": [{"size": "1"}]}}}, "dtype": {"type": "DT_INT32"}}}, {"name": "StatefulPartitionedCall/mobilebert/encoder/layer_._22/bottleneck/attention/dense/Tensordot/axes", "op": "Const", "attr": {"value": {"tensor": {"dtype": "DT_INT32", "tensorShape": {"dim": [{"size": "1"}]}}}, "dtype": {"type": "DT_INT32"}}}, {"name": "StatefulPartitionedCall/mobilebert/encoder/layer_._22/bottleneck/attention/dense/Tensordot/GatherV2_1/axis", "op": "Const", "attr": {"dtype": {"type": "DT_INT32"}, "value": {"tensor": {"dtype": "DT_INT32", "tensorShape": {}}}}}, {"name": "StatefulPartitionedCall/mobilebert/encoder/layer_._22/bottleneck/attention/dense/Tensordot/Const_1", "op": "Const", "attr": {"value": {"tensor": {"dtype": "DT_INT32", "tensorShape": {"dim": [{"size": "1"}]}}}, "dtype": {"type": "DT_INT32"}}}, {"name": "StatefulPartitionedCall/mobilebert/encoder/layer_._22/bottleneck/attention/dense/Tensordot/ReadVariableOp", "op": "Const", "attr": {"dtype": {"type": "DT_FLOAT"}, "value": {"tensor": {"dtype": "DT_FLOAT", "tensorShape": {"dim": [{"size": "512"}, {"size": "128"}]}}}}}, {"name": "StatefulPartitionedCall/mobilebert/encoder/layer_._22/bottleneck/attention/dense/Tensordot/free", "op": "Const", "attr": {"dtype": {"type": "DT_INT32"}, "value": {"tensor": {"dtype": "DT_INT32", "tensorShape": {"dim": [{"size": "2"}]}}}}}, {"name": "StatefulPartitionedCall/mobilebert/encoder/layer_._22/bottleneck/attention/dense/Tensordot/GatherV2/axis", "op": "Const", "attr": {"dtype": {"type": "DT_INT32"}, "value": {"tensor": {"dtype": "DT_INT32", "tensorShape": {}}}}}, {"name": "StatefulPartitionedCall/mobilebert/encoder/layer_._22/bottleneck/attention/dense/Tensordot/Const_2", "op": "Const", "attr": {"dtype": {"type": "DT_INT32"}, "value": {"tensor": {"dtype": "DT_INT32", "tensorShape": {"dim": [{"size": "1"}]}}}}}, {"name": "StatefulPartitionedCall/mobilebert/encoder/layer_._22/bottleneck/attention/dense/Tensordot/concat_1/axis", "op": "Const", "attr": {"dtype": {"type": "DT_INT32"}, "value": {"tensor": {"dtype": "DT_INT32", "tensorShape": {}}}}}, {"name": "StatefulPartitionedCall/mobilebert/encoder/layer_._22/bottleneck/attention/dense/BiasAdd/ReadVariableOp", "op": "Const", "attr": {"dtype": {"type": "DT_FLOAT"}, "value": {"tensor": {"dtype": "DT_FLOAT", "tensorShape": {"dim": [{"size": "128"}]}}}}}, {"name": "StatefulPartitionedCall/mobilebert/encoder/layer_._22/bottleneck/attention/LayerNorm/mul/ReadVariableOp", "op": "Const", "attr": {"dtype": {"type": "DT_FLOAT"}, "value": {"tensor": {"dtype": "DT_FLOAT", "tensorShape": {"dim": [{"size": "128"}]}}}}}, {"name": "StatefulPartitionedCall/mobilebert/encoder/layer_._22/bottleneck/attention/LayerNorm/add/ReadVariableOp", "op": "Const", "attr": {"value": {"tensor": {"dtype": "DT_FLOAT", "tensorShape": {"dim": [{"size": "128"}]}}}, "dtype": {"type": "DT_FLOAT"}}}, {"name": "StatefulPartitionedCall/mobilebert/encoder/layer_._22/attention/self/key/Tensordot/free", "op": "Const", "attr": {"dtype": {"type": "DT_INT32"}, "value": {"tensor": {"dtype": "DT_INT32", "tensorShape": {"dim": [{"size": "2"}]}}}}}, {"name": "StatefulPartitionedCall/mobilebert/encoder/layer_._22/attention/self/key/Tensordot/GatherV2/axis", "op": "Const", "attr": {"dtype": {"type": "DT_INT32"}, "value": {"tensor": {"dtype": "DT_INT32", "tensorShape": {}}}}}, {"name": "StatefulPartitionedCall/mobilebert/encoder/layer_._22/attention/self/key/Tensordot/Const_2", "op": "Const", "attr": {"dtype": {"type": "DT_INT32"}, "value": {"tensor": {"dtype": "DT_INT32", "tensorShape": {"dim": [{"size": "1"}]}}}}}, {"name": "StatefulPartitionedCall/mobilebert/encoder/layer_._22/attention/self/key/Tensordot/concat_1/axis", "op": "Const", "attr": {"value": {"tensor": {"dtype": "DT_INT32", "tensorShape": {}}}, "dtype": {"type": "DT_INT32"}}}, {"name": "StatefulPartitionedCall/mobilebert/encoder/layer_._22/attention/self/key/BiasAdd/ReadVariableOp", "op": "Const", "attr": {"dtype": {"type": "DT_FLOAT"}, "value": {"tensor": {"dtype": "DT_FLOAT", "tensorShape": {"dim": [{"size": "128"}]}}}}}, {"name": "StatefulPartitionedCall/mobilebert/encoder/layer_._22/attention/self/Reshape_1/shape/1", "op": "Const", "attr": {"dtype": {"type": "DT_INT32"}, "value": {"tensor": {"dtype": "DT_INT32", "tensorShape": {}}}}}, {"name": "StatefulPartitionedCall/mobilebert/encoder/layer_._22/attention/self/Reshape_1/shape/2", "op": "Const", "attr": {"dtype": {"type": "DT_INT32"}, "value": {"tensor": {"dtype": "DT_INT32", "tensorShape": {}}}}}, {"name": "StatefulPartitionedCall/mobilebert/encoder/layer_._22/attention/self/Reshape_1/shape/3", "op": "Const", "attr": {"dtype": {"type": "DT_INT32"}, "value": {"tensor": {"dtype": "DT_INT32", "tensorShape": {}}}}}, {"name": "StatefulPartitionedCall/mobilebert/encoder/layer_._22/attention/self/transpose_1/perm", "op": "Const", "attr": {"dtype": {"type": "DT_INT32"}, "value": {"tensor": {"dtype": "DT_INT32", "tensorShape": {"dim": [{"size": "4"}]}}}}}, {"name": "ConstantFolding/StatefulPartitionedCall/mobilebert/encoder/layer_._22/attention/self/truediv_recip", "op": "Const", "attr": {"dtype": {"type": "DT_FLOAT"}, "value": {"tensor": {"dtype": "DT_FLOAT", "tensorShape": {}}}}}, {"name": "StatefulPartitionedCall/mobilebert/encoder/layer_._22/attention/self/value/Tensordot/Const", "op": "Const", "attr": {"dtype": {"type": "DT_INT32"}, "value": {"tensor": {"dtype": "DT_INT32", "tensorShape": {"dim": [{"size": "1"}]}}}}}, {"name": "StatefulPartitionedCall/mobilebert/encoder/layer_._22/attention/self/value/Tensordot/axes", "op": "Const", "attr": {"dtype": {"type": "DT_INT32"}, "value": {"tensor": {"dtype": "DT_INT32", "tensorShape": {"dim": [{"size": "1"}]}}}}}, {"name": "StatefulPartitionedCall/mobilebert/encoder/layer_._22/attention/self/value/Tensordot/GatherV2_1/axis", "op": "Const", "attr": {"dtype": {"type": "DT_INT32"}, "value": {"tensor": {"dtype": "DT_INT32", "tensorShape": {}}}}}, {"name": "StatefulPartitionedCall/mobilebert/encoder/layer_._22/attention/self/value/Tensordot/Const_1", "op": "Const", "attr": {"value": {"tensor": {"dtype": "DT_INT32", "tensorShape": {"dim": [{"size": "1"}]}}}, "dtype": {"type": "DT_INT32"}}}, {"name": "StatefulPartitionedCall/mobilebert/encoder/layer_._22/attention/self/value/Tensordot/ReadVariableOp", "op": "Const", "attr": {"value": {"tensor": {"dtype": "DT_FLOAT", "tensorShape": {"dim": [{"size": "512"}, {"size": "128"}]}}}, "dtype": {"type": "DT_FLOAT"}}}, {"name": "StatefulPartitionedCall/mobilebert/encoder/layer_._22/attention/self/value/Tensordot/free", "op": "Const", "attr": {"value": {"tensor": {"dtype": "DT_INT32", "tensorShape": {"dim": [{"size": "2"}]}}}, "dtype": {"type": "DT_INT32"}}}, {"name": "StatefulPartitionedCall/mobilebert/encoder/layer_._22/attention/self/value/Tensordot/GatherV2/axis", "op": "Const", "attr": {"dtype": {"type": "DT_INT32"}, "value": {"tensor": {"dtype": "DT_INT32", "tensorShape": {}}}}}, {"name": "StatefulPartitionedCall/mobilebert/encoder/layer_._22/attention/self/value/Tensordot/Const_2", "op": "Const", "attr": {"value": {"tensor": {"dtype": "DT_INT32", "tensorShape": {"dim": [{"size": "1"}]}}}, "dtype": {"type": "DT_INT32"}}}, {"name": "StatefulPartitionedCall/mobilebert/encoder/layer_._22/attention/self/value/Tensordot/concat_1/axis", "op": "Const", "attr": {"dtype": {"type": "DT_INT32"}, "value": {"tensor": {"dtype": "DT_INT32", "tensorShape": {}}}}}, {"name": "StatefulPartitionedCall/mobilebert/encoder/layer_._22/attention/self/value/BiasAdd/ReadVariableOp", "op": "Const", "attr": {"dtype": {"type": "DT_FLOAT"}, "value": {"tensor": {"dtype": "DT_FLOAT", "tensorShape": {"dim": [{"size": "128"}]}}}}}, {"name": "StatefulPartitionedCall/mobilebert/encoder/layer_._22/attention/self/Reshape_2/shape/1", "op": "Const", "attr": {"value": {"tensor": {"dtype": "DT_INT32", "tensorShape": {}}}, "dtype": {"type": "DT_INT32"}}}, {"name": "StatefulPartitionedCall/mobilebert/encoder/layer_._22/attention/self/Reshape_2/shape/2", "op": "Const", "attr": {"dtype": {"type": "DT_INT32"}, "value": {"tensor": {"dtype": "DT_INT32", "tensorShape": {}}}}}, {"name": "StatefulPartitionedCall/mobilebert/encoder/layer_._22/attention/self/Reshape_2/shape/3", "op": "Const", "attr": {"dtype": {"type": "DT_INT32"}, "value": {"tensor": {"dtype": "DT_INT32", "tensorShape": {}}}}}, {"name": "StatefulPartitionedCall/mobilebert/encoder/layer_._22/attention/self/transpose_2/perm", "op": "Const", "attr": {"dtype": {"type": "DT_INT32"}, "value": {"tensor": {"dtype": "DT_INT32", "tensorShape": {"dim": [{"size": "4"}]}}}}}, {"name": "StatefulPartitionedCall/mobilebert/encoder/layer_._22/attention/self/transpose_3/perm", "op": "Const", "attr": {"dtype": {"type": "DT_INT32"}, "value": {"tensor": {"dtype": "DT_INT32", "tensorShape": {"dim": [{"size": "4"}]}}}}}, {"name": "StatefulPartitionedCall/mobilebert/encoder/layer_._22/attention/self/strided_slice/stack", "op": "Const", "attr": {"dtype": {"type": "DT_INT32"}, "value": {"tensor": {"dtype": "DT_INT32", "tensorShape": {"dim": [{"size": "1"}]}}}}}, {"name": "StatefulPartitionedCall/mobilebert/encoder/layer_._22/attention/self/strided_slice/stack_1", "op": "Const", "attr": {"dtype": {"type": "DT_INT32"}, "value": {"tensor": {"dtype": "DT_INT32", "tensorShape": {"dim": [{"size": "1"}]}}}}}, {"name": "StatefulPartitionedCall/mobilebert/encoder/layer_._22/attention/self/strided_slice/stack_2", "op": "Const", "attr": {"dtype": {"type": "DT_INT32"}, "value": {"tensor": {"dtype": "DT_INT32", "tensorShape": {"dim": [{"size": "1"}]}}}}}, {"name": "StatefulPartitionedCall/mobilebert/encoder/layer_._22/attention/self/Reshape_3/shape/1", "op": "Const", "attr": {"dtype": {"type": "DT_INT32"}, "value": {"tensor": {"dtype": "DT_INT32", "tensorShape": {}}}}}, {"name": "StatefulPartitionedCall/mobilebert/encoder/layer_._22/attention/self/Reshape_3/shape/2", "op": "Const", "attr": {"value": {"tensor": {"dtype": "DT_INT32", "tensorShape": {}}}, "dtype": {"type": "DT_INT32"}}}, {"name": "StatefulPartitionedCall/mobilebert/encoder/layer_._22/attention/output/dense/Tensordot/free", "op": "Const", "attr": {"dtype": {"type": "DT_INT32"}, "value": {"tensor": {"dtype": "DT_INT32", "tensorShape": {"dim": [{"size": "2"}]}}}}}, {"name": "StatefulPartitionedCall/mobilebert/encoder/layer_._22/attention/output/dense/Tensordot/GatherV2/axis", "op": "Const", "attr": {"dtype": {"type": "DT_INT32"}, "value": {"tensor": {"dtype": "DT_INT32", "tensorShape": {}}}}}, {"name": "StatefulPartitionedCall/mobilebert/encoder/layer_._22/attention/output/dense/Tensordot/Const_2", "op": "Const", "attr": {"value": {"tensor": {"dtype": "DT_INT32", "tensorShape": {"dim": [{"size": "1"}]}}}, "dtype": {"type": "DT_INT32"}}}, {"name": "StatefulPartitionedCall/mobilebert/encoder/layer_._22/attention/output/dense/Tensordot/concat_1/axis", "op": "Const", "attr": {"dtype": {"type": "DT_INT32"}, "value": {"tensor": {"dtype": "DT_INT32", "tensorShape": {}}}}}, {"name": "StatefulPartitionedCall/mobilebert/encoder/layer_._22/attention/output/dense/BiasAdd/ReadVariableOp", "op": "Const", "attr": {"dtype": {"type": "DT_FLOAT"}, "value": {"tensor": {"dtype": "DT_FLOAT", "tensorShape": {"dim": [{"size": "128"}]}}}}}, {"name": "StatefulPartitionedCall/mobilebert/encoder/layer_._22/bottleneck/input/dense/Tensordot/Const", "op": "Const", "attr": {"value": {"tensor": {"dtype": "DT_INT32", "tensorShape": {"dim": [{"size": "1"}]}}}, "dtype": {"type": "DT_INT32"}}}, {"name": "StatefulPartitionedCall/mobilebert/encoder/layer_._22/bottleneck/input/dense/Tensordot/axes", "op": "Const", "attr": {"dtype": {"type": "DT_INT32"}, "value": {"tensor": {"dtype": "DT_INT32", "tensorShape": {"dim": [{"size": "1"}]}}}}}, {"name": "StatefulPartitionedCall/mobilebert/encoder/layer_._22/bottleneck/input/dense/Tensordot/GatherV2_1/axis", "op": "Const", "attr": {"dtype": {"type": "DT_INT32"}, "value": {"tensor": {"dtype": "DT_INT32", "tensorShape": {}}}}}, {"name": "StatefulPartitionedCall/mobilebert/encoder/layer_._22/bottleneck/input/dense/Tensordot/Const_1", "op": "Const", "attr": {"dtype": {"type": "DT_INT32"}, "value": {"tensor": {"dtype": "DT_INT32", "tensorShape": {"dim": [{"size": "1"}]}}}}}, {"name": "StatefulPartitionedCall/mobilebert/encoder/layer_._22/bottleneck/input/dense/Tensordot/ReadVariableOp", "op": "Const", "attr": {"dtype": {"type": "DT_FLOAT"}, "value": {"tensor": {"dtype": "DT_FLOAT", "tensorShape": {"dim": [{"size": "512"}, {"size": "128"}]}}}}}, {"name": "StatefulPartitionedCall/mobilebert/encoder/layer_._22/bottleneck/input/dense/Tensordot/free", "op": "Const", "attr": {"dtype": {"type": "DT_INT32"}, "value": {"tensor": {"dtype": "DT_INT32", "tensorShape": {"dim": [{"size": "2"}]}}}}}, {"name": "StatefulPartitionedCall/mobilebert/encoder/layer_._22/bottleneck/input/dense/Tensordot/GatherV2/axis", "op": "Const", "attr": {"dtype": {"type": "DT_INT32"}, "value": {"tensor": {"dtype": "DT_INT32", "tensorShape": {}}}}}, {"name": "StatefulPartitionedCall/mobilebert/encoder/layer_._22/bottleneck/input/dense/Tensordot/Const_2", "op": "Const", "attr": {"dtype": {"type": "DT_INT32"}, "value": {"tensor": {"dtype": "DT_INT32", "tensorShape": {"dim": [{"size": "1"}]}}}}}, {"name": "StatefulPartitionedCall/mobilebert/encoder/layer_._22/bottleneck/input/dense/Tensordot/concat_1/axis", "op": "Const", "attr": {"dtype": {"type": "DT_INT32"}, "value": {"tensor": {"dtype": "DT_INT32", "tensorShape": {}}}}}, {"name": "StatefulPartitionedCall/mobilebert/encoder/layer_._22/bottleneck/input/dense/BiasAdd/ReadVariableOp", "op": "Const", "attr": {"dtype": {"type": "DT_FLOAT"}, "value": {"tensor": {"dtype": "DT_FLOAT", "tensorShape": {"dim": [{"size": "128"}]}}}}}, {"name": "StatefulPartitionedCall/mobilebert/encoder/layer_._22/bottleneck/input/LayerNorm/mul/ReadVariableOp", "op": "Const", "attr": {"dtype": {"type": "DT_FLOAT"}, "value": {"tensor": {"dtype": "DT_FLOAT", "tensorShape": {"dim": [{"size": "128"}]}}}}}, {"name": "StatefulPartitionedCall/mobilebert/encoder/layer_._22/bottleneck/input/LayerNorm/add/ReadVariableOp", "op": "Const", "attr": {"value": {"tensor": {"dtype": "DT_FLOAT", "tensorShape": {"dim": [{"size": "128"}]}}}, "dtype": {"type": "DT_FLOAT"}}}, {"name": "StatefulPartitionedCall/mobilebert/encoder/layer_._22/attention/output/LayerNorm/mul/ReadVariableOp", "op": "Const", "attr": {"dtype": {"type": "DT_FLOAT"}, "value": {"tensor": {"dtype": "DT_FLOAT", "tensorShape": {"dim": [{"size": "128"}]}}}}}, {"name": "StatefulPartitionedCall/mobilebert/encoder/layer_._22/attention/output/LayerNorm/add/ReadVariableOp", "op": "Const", "attr": {"dtype": {"type": "DT_FLOAT"}, "value": {"tensor": {"dtype": "DT_FLOAT", "tensorShape": {"dim": [{"size": "128"}]}}}}}, {"name": "StatefulPartitionedCall/mobilebert/encoder/layer_._22/ffn.0/output/LayerNorm/mul/ReadVariableOp", "op": "Const", "attr": {"dtype": {"type": "DT_FLOAT"}, "value": {"tensor": {"dtype": "DT_FLOAT", "tensorShape": {"dim": [{"size": "128"}]}}}}}, {"name": "StatefulPartitionedCall/mobilebert/encoder/layer_._22/ffn.0/output/LayerNorm/add/ReadVariableOp", "op": "Const", "attr": {"dtype": {"type": "DT_FLOAT"}, "value": {"tensor": {"dtype": "DT_FLOAT", "tensorShape": {"dim": [{"size": "128"}]}}}}}, {"name": "StatefulPartitionedCall/mobilebert/encoder/layer_._22/ffn.1/output/LayerNorm/mul/ReadVariableOp", "op": "Const", "attr": {"value": {"tensor": {"dtype": "DT_FLOAT", "tensorShape": {"dim": [{"size": "128"}]}}}, "dtype": {"type": "DT_FLOAT"}}}, {"name": "StatefulPartitionedCall/mobilebert/encoder/layer_._22/ffn.1/output/LayerNorm/add/ReadVariableOp", "op": "Const", "attr": {"dtype": {"type": "DT_FLOAT"}, "value": {"tensor": {"dtype": "DT_FLOAT", "tensorShape": {"dim": [{"size": "128"}]}}}}}, {"name": "StatefulPartitionedCall/mobilebert/encoder/layer_._22/ffn.2/output/LayerNorm/mul/ReadVariableOp", "op": "Const", "attr": {"dtype": {"type": "DT_FLOAT"}, "value": {"tensor": {"dtype": "DT_FLOAT", "tensorShape": {"dim": [{"size": "128"}]}}}}}, {"name": "StatefulPartitionedCall/mobilebert/encoder/layer_._22/ffn.2/output/LayerNorm/add/ReadVariableOp", "op": "Const", "attr": {"dtype": {"type": "DT_FLOAT"}, "value": {"tensor": {"dtype": "DT_FLOAT", "tensorShape": {"dim": [{"size": "128"}]}}}}}, {"name": "StatefulPartitionedCall/mobilebert/encoder/layer_._22/output/LayerNorm/mul/ReadVariableOp", "op": "Const", "attr": {"value": {"tensor": {"dtype": "DT_FLOAT", "tensorShape": {"dim": [{"size": "128"}]}}}, "dtype": {"type": "DT_FLOAT"}}}, {"name": "StatefulPartitionedCall/mobilebert/encoder/layer_._22/output/LayerNorm/add/ReadVariableOp", "op": "Const", "attr": {"value": {"tensor": {"dtype": "DT_FLOAT", "tensorShape": {"dim": [{"size": "128"}]}}}, "dtype": {"type": "DT_FLOAT"}}}, {"name": "StatefulPartitionedCall/mobilebert/encoder/layer_._22/output/bottleneck/dense/Tensordot/free", "op": "Const", "attr": {"dtype": {"type": "DT_INT32"}, "value": {"tensor": {"dtype": "DT_INT32", "tensorShape": {"dim": [{"size": "2"}]}}}}}, {"name": "StatefulPartitionedCall/mobilebert/encoder/layer_._22/output/bottleneck/dense/Tensordot/GatherV2/axis", "op": "Const", "attr": {"dtype": {"type": "DT_INT32"}, "value": {"tensor": {"dtype": "DT_INT32", "tensorShape": {}}}}}, {"name": "StatefulPartitionedCall/mobilebert/encoder/layer_._22/output/bottleneck/dense/Tensordot/Const_2", "op": "Const", "attr": {"dtype": {"type": "DT_INT32"}, "value": {"tensor": {"dtype": "DT_INT32", "tensorShape": {"dim": [{"size": "1"}]}}}}}, {"name": "StatefulPartitionedCall/mobilebert/encoder/layer_._22/output/bottleneck/dense/Tensordot/concat_1/axis", "op": "Const", "attr": {"value": {"tensor": {"dtype": "DT_INT32", "tensorShape": {}}}, "dtype": {"type": "DT_INT32"}}}, {"name": "StatefulPartitionedCall/mobilebert/encoder/layer_._22/output/bottleneck/dense/BiasAdd/ReadVariableOp", "op": "Const", "attr": {"dtype": {"type": "DT_FLOAT"}, "value": {"tensor": {"dtype": "DT_FLOAT", "tensorShape": {"dim": [{"size": "512"}]}}}}}, {"name": "StatefulPartitionedCall/mobilebert/encoder/layer_._21/output/bottleneck/dense/Tensordot/Const", "op": "Const", "attr": {"dtype": {"type": "DT_INT32"}, "value": {"tensor": {"dtype": "DT_INT32", "tensorShape": {"dim": [{"size": "1"}]}}}}}, {"name": "StatefulPartitionedCall/mobilebert/encoder/layer_._21/output/bottleneck/dense/Tensordot/axes", "op": "Const", "attr": {"dtype": {"type": "DT_INT32"}, "value": {"tensor": {"dtype": "DT_INT32", "tensorShape": {"dim": [{"size": "1"}]}}}}}, {"name": "StatefulPartitionedCall/mobilebert/encoder/layer_._21/output/bottleneck/dense/Tensordot/GatherV2_1/axis", "op": "Const", "attr": {"dtype": {"type": "DT_INT32"}, "value": {"tensor": {"dtype": "DT_INT32", "tensorShape": {}}}}}, {"name": "StatefulPartitionedCall/mobilebert/encoder/layer_._21/output/bottleneck/dense/Tensordot/Const_1", "op": "Const", "attr": {"dtype": {"type": "DT_INT32"}, "value": {"tensor": {"dtype": "DT_INT32", "tensorShape": {"dim": [{"size": "1"}]}}}}}, {"name": "StatefulPartitionedCall/mobilebert/encoder/layer_._21/output/bottleneck/dense/Tensordot/ReadVariableOp", "op": "Const", "attr": {"dtype": {"type": "DT_FLOAT"}, "value": {"tensor": {"dtype": "DT_FLOAT", "tensorShape": {"dim": [{"size": "128"}, {"size": "512"}]}}}}}, {"name": "StatefulPartitionedCall/mobilebert/encoder/layer_._21/output/dense/Tensordot/Const", "op": "Const", "attr": {"dtype": {"type": "DT_INT32"}, "value": {"tensor": {"dtype": "DT_INT32", "tensorShape": {"dim": [{"size": "1"}]}}}}}, {"name": "StatefulPartitionedCall/mobilebert/encoder/layer_._21/output/dense/Tensordot/axes", "op": "Const", "attr": {"dtype": {"type": "DT_INT32"}, "value": {"tensor": {"dtype": "DT_INT32", "tensorShape": {"dim": [{"size": "1"}]}}}}}, {"name": "StatefulPartitionedCall/mobilebert/encoder/layer_._21/output/dense/Tensordot/GatherV2_1/axis", "op": "Const", "attr": {"dtype": {"type": "DT_INT32"}, "value": {"tensor": {"dtype": "DT_INT32", "tensorShape": {}}}}}, {"name": "StatefulPartitionedCall/mobilebert/encoder/layer_._21/output/dense/Tensordot/Const_1", "op": "Const", "attr": {"dtype": {"type": "DT_INT32"}, "value": {"tensor": {"dtype": "DT_INT32", "tensorShape": {"dim": [{"size": "1"}]}}}}}, {"name": "StatefulPartitionedCall/mobilebert/encoder/layer_._21/output/dense/Tensordot/ReadVariableOp", "op": "Const", "attr": {"value": {"tensor": {"dtype": "DT_FLOAT", "tensorShape": {"dim": [{"size": "512"}, {"size": "128"}]}}}, "dtype": {"type": "DT_FLOAT"}}}, {"name": "StatefulPartitionedCall/mobilebert/encoder/layer_._21/intermediate/dense/Tensordot/Const", "op": "Const", "attr": {"dtype": {"type": "DT_INT32"}, "value": {"tensor": {"dtype": "DT_INT32", "tensorShape": {"dim": [{"size": "1"}]}}}}}, {"name": "StatefulPartitionedCall/mobilebert/encoder/layer_._21/intermediate/dense/Tensordot/axes", "op": "Const", "attr": {"dtype": {"type": "DT_INT32"}, "value": {"tensor": {"dtype": "DT_INT32", "tensorShape": {"dim": [{"size": "1"}]}}}}}, {"name": "StatefulPartitionedCall/mobilebert/encoder/layer_._21/intermediate/dense/Tensordot/GatherV2_1/axis", "op": "Const", "attr": {"dtype": {"type": "DT_INT32"}, "value": {"tensor": {"dtype": "DT_INT32", "tensorShape": {}}}}}, {"name": "StatefulPartitionedCall/mobilebert/encoder/layer_._21/intermediate/dense/Tensordot/Const_1", "op": "Const", "attr": {"dtype": {"type": "DT_INT32"}, "value": {"tensor": {"dtype": "DT_INT32", "tensorShape": {"dim": [{"size": "1"}]}}}}}, {"name": "StatefulPartitionedCall/mobilebert/encoder/layer_._21/intermediate/dense/Tensordot/ReadVariableOp", "op": "Const", "attr": {"dtype": {"type": "DT_FLOAT"}, "value": {"tensor": {"dtype": "DT_FLOAT", "tensorShape": {"dim": [{"size": "128"}, {"size": "512"}]}}}}}, {"name": "StatefulPartitionedCall/mobilebert/encoder/layer_._21/intermediate/dense/Tensordot/free", "op": "Const", "attr": {"dtype": {"type": "DT_INT32"}, "value": {"tensor": {"dtype": "DT_INT32", "tensorShape": {"dim": [{"size": "2"}]}}}}}, {"name": "StatefulPartitionedCall/mobilebert/encoder/layer_._21/intermediate/dense/Tensordot/GatherV2/axis", "op": "Const", "attr": {"dtype": {"type": "DT_INT32"}, "value": {"tensor": {"dtype": "DT_INT32", "tensorShape": {}}}}}, {"name": "StatefulPartitionedCall/mobilebert/encoder/layer_._21/intermediate/dense/Tensordot/Const_2", "op": "Const", "attr": {"dtype": {"type": "DT_INT32"}, "value": {"tensor": {"dtype": "DT_INT32", "tensorShape": {"dim": [{"size": "1"}]}}}}}, {"name": "StatefulPartitionedCall/mobilebert/encoder/layer_._21/intermediate/dense/Tensordot/concat_1/axis", "op": "Const", "attr": {"dtype": {"type": "DT_INT32"}, "value": {"tensor": {"dtype": "DT_INT32", "tensorShape": {}}}}}, {"name": "StatefulPartitionedCall/mobilebert/encoder/layer_._21/intermediate/dense/BiasAdd/ReadVariableOp", "op": "Const", "attr": {"dtype": {"type": "DT_FLOAT"}, "value": {"tensor": {"dtype": "DT_FLOAT", "tensorShape": {"dim": [{"size": "512"}]}}}}}, {"name": "StatefulPartitionedCall/mobilebert/encoder/layer_._21/output/dense/Tensordot/free", "op": "Const", "attr": {"dtype": {"type": "DT_INT32"}, "value": {"tensor": {"dtype": "DT_INT32", "tensorShape": {"dim": [{"size": "2"}]}}}}}, {"name": "StatefulPartitionedCall/mobilebert/encoder/layer_._21/output/dense/Tensordot/GatherV2/axis", "op": "Const", "attr": {"dtype": {"type": "DT_INT32"}, "value": {"tensor": {"dtype": "DT_INT32", "tensorShape": {}}}}}, {"name": "StatefulPartitionedCall/mobilebert/encoder/layer_._21/output/dense/Tensordot/Const_2", "op": "Const", "attr": {"dtype": {"type": "DT_INT32"}, "value": {"tensor": {"dtype": "DT_INT32", "tensorShape": {"dim": [{"size": "1"}]}}}}}, {"name": "StatefulPartitionedCall/mobilebert/encoder/layer_._21/output/dense/Tensordot/concat_1/axis", "op": "Const", "attr": {"dtype": {"type": "DT_INT32"}, "value": {"tensor": {"dtype": "DT_INT32", "tensorShape": {}}}}}, {"name": "StatefulPartitionedCall/mobilebert/encoder/layer_._21/output/dense/BiasAdd/ReadVariableOp", "op": "Const", "attr": {"dtype": {"type": "DT_FLOAT"}, "value": {"tensor": {"dtype": "DT_FLOAT", "tensorShape": {"dim": [{"size": "128"}]}}}}}, {"name": "StatefulPartitionedCall/mobilebert/encoder/layer_._21/ffn.2/output/dense/Tensordot/Const", "op": "Const", "attr": {"dtype": {"type": "DT_INT32"}, "value": {"tensor": {"dtype": "DT_INT32", "tensorShape": {"dim": [{"size": "1"}]}}}}}, {"name": "StatefulPartitionedCall/mobilebert/encoder/layer_._21/ffn.2/output/dense/Tensordot/axes", "op": "Const", "attr": {"dtype": {"type": "DT_INT32"}, "value": {"tensor": {"dtype": "DT_INT32", "tensorShape": {"dim": [{"size": "1"}]}}}}}, {"name": "StatefulPartitionedCall/mobilebert/encoder/layer_._21/ffn.2/output/dense/Tensordot/GatherV2_1/axis", "op": "Const", "attr": {"dtype": {"type": "DT_INT32"}, "value": {"tensor": {"dtype": "DT_INT32", "tensorShape": {}}}}}, {"name": "StatefulPartitionedCall/mobilebert/encoder/layer_._21/ffn.2/output/dense/Tensordot/Const_1", "op": "Const", "attr": {"dtype": {"type": "DT_INT32"}, "value": {"tensor": {"dtype": "DT_INT32", "tensorShape": {"dim": [{"size": "1"}]}}}}}, {"name": "StatefulPartitionedCall/mobilebert/encoder/layer_._21/ffn.2/output/dense/Tensordot/ReadVariableOp", "op": "Const", "attr": {"dtype": {"type": "DT_FLOAT"}, "value": {"tensor": {"dtype": "DT_FLOAT", "tensorShape": {"dim": [{"size": "512"}, {"size": "128"}]}}}}}, {"name": "StatefulPartitionedCall/mobilebert/encoder/layer_._21/ffn.2/intermediate/dense/Tensordot/Const", "op": "Const", "attr": {"dtype": {"type": "DT_INT32"}, "value": {"tensor": {"dtype": "DT_INT32", "tensorShape": {"dim": [{"size": "1"}]}}}}}, {"name": "StatefulPartitionedCall/mobilebert/encoder/layer_._21/ffn.2/intermediate/dense/Tensordot/axes", "op": "Const", "attr": {"dtype": {"type": "DT_INT32"}, "value": {"tensor": {"dtype": "DT_INT32", "tensorShape": {"dim": [{"size": "1"}]}}}}}, {"name": "StatefulPartitionedCall/mobilebert/encoder/layer_._21/ffn.2/intermediate/dense/Tensordot/GatherV2_1/axis", "op": "Const", "attr": {"dtype": {"type": "DT_INT32"}, "value": {"tensor": {"dtype": "DT_INT32", "tensorShape": {}}}}}, {"name": "StatefulPartitionedCall/mobilebert/encoder/layer_._21/ffn.2/intermediate/dense/Tensordot/Const_1", "op": "Const", "attr": {"dtype": {"type": "DT_INT32"}, "value": {"tensor": {"dtype": "DT_INT32", "tensorShape": {"dim": [{"size": "1"}]}}}}}, {"name": "StatefulPartitionedCall/mobilebert/encoder/layer_._21/ffn.2/intermediate/dense/Tensordot/ReadVariableOp", "op": "Const", "attr": {"dtype": {"type": "DT_FLOAT"}, "value": {"tensor": {"dtype": "DT_FLOAT", "tensorShape": {"dim": [{"size": "128"}, {"size": "512"}]}}}}}, {"name": "StatefulPartitionedCall/mobilebert/encoder/layer_._21/ffn.2/intermediate/dense/Tensordot/free", "op": "Const", "attr": {"dtype": {"type": "DT_INT32"}, "value": {"tensor": {"dtype": "DT_INT32", "tensorShape": {"dim": [{"size": "2"}]}}}}}, {"name": "StatefulPartitionedCall/mobilebert/encoder/layer_._21/ffn.2/intermediate/dense/Tensordot/GatherV2/axis", "op": "Const", "attr": {"dtype": {"type": "DT_INT32"}, "value": {"tensor": {"dtype": "DT_INT32", "tensorShape": {}}}}}, {"name": "StatefulPartitionedCall/mobilebert/encoder/layer_._21/ffn.2/intermediate/dense/Tensordot/Const_2", "op": "Const", "attr": {"value": {"tensor": {"dtype": "DT_INT32", "tensorShape": {"dim": [{"size": "1"}]}}}, "dtype": {"type": "DT_INT32"}}}, {"name": "StatefulPartitionedCall/mobilebert/encoder/layer_._21/ffn.2/intermediate/dense/Tensordot/concat_1/axis", "op": "Const", "attr": {"dtype": {"type": "DT_INT32"}, "value": {"tensor": {"dtype": "DT_INT32", "tensorShape": {}}}}}, {"name": "StatefulPartitionedCall/mobilebert/encoder/layer_._21/ffn.2/intermediate/dense/BiasAdd/ReadVariableOp", "op": "Const", "attr": {"dtype": {"type": "DT_FLOAT"}, "value": {"tensor": {"dtype": "DT_FLOAT", "tensorShape": {"dim": [{"size": "512"}]}}}}}, {"name": "StatefulPartitionedCall/mobilebert/encoder/layer_._21/ffn.2/output/dense/Tensordot/free", "op": "Const", "attr": {"dtype": {"type": "DT_INT32"}, "value": {"tensor": {"dtype": "DT_INT32", "tensorShape": {"dim": [{"size": "2"}]}}}}}, {"name": "StatefulPartitionedCall/mobilebert/encoder/layer_._21/ffn.2/output/dense/Tensordot/GatherV2/axis", "op": "Const", "attr": {"dtype": {"type": "DT_INT32"}, "value": {"tensor": {"dtype": "DT_INT32", "tensorShape": {}}}}}, {"name": "StatefulPartitionedCall/mobilebert/encoder/layer_._21/ffn.2/output/dense/Tensordot/Const_2", "op": "Const", "attr": {"dtype": {"type": "DT_INT32"}, "value": {"tensor": {"dtype": "DT_INT32", "tensorShape": {"dim": [{"size": "1"}]}}}}}, {"name": "StatefulPartitionedCall/mobilebert/encoder/layer_._21/ffn.2/output/dense/Tensordot/concat_1/axis", "op": "Const", "attr": {"dtype": {"type": "DT_INT32"}, "value": {"tensor": {"dtype": "DT_INT32", "tensorShape": {}}}}}, {"name": "StatefulPartitionedCall/mobilebert/encoder/layer_._21/ffn.2/output/dense/BiasAdd/ReadVariableOp", "op": "Const", "attr": {"dtype": {"type": "DT_FLOAT"}, "value": {"tensor": {"dtype": "DT_FLOAT", "tensorShape": {"dim": [{"size": "128"}]}}}}}, {"name": "StatefulPartitionedCall/mobilebert/encoder/layer_._21/ffn.1/output/dense/Tensordot/Const", "op": "Const", "attr": {"dtype": {"type": "DT_INT32"}, "value": {"tensor": {"dtype": "DT_INT32", "tensorShape": {"dim": [{"size": "1"}]}}}}}, {"name": "StatefulPartitionedCall/mobilebert/encoder/layer_._21/ffn.1/output/dense/Tensordot/axes", "op": "Const", "attr": {"dtype": {"type": "DT_INT32"}, "value": {"tensor": {"dtype": "DT_INT32", "tensorShape": {"dim": [{"size": "1"}]}}}}}, {"name": "StatefulPartitionedCall/mobilebert/encoder/layer_._21/ffn.1/output/dense/Tensordot/GatherV2_1/axis", "op": "Const", "attr": {"dtype": {"type": "DT_INT32"}, "value": {"tensor": {"dtype": "DT_INT32", "tensorShape": {}}}}}, {"name": "StatefulPartitionedCall/mobilebert/encoder/layer_._21/ffn.1/output/dense/Tensordot/Const_1", "op": "Const", "attr": {"value": {"tensor": {"dtype": "DT_INT32", "tensorShape": {"dim": [{"size": "1"}]}}}, "dtype": {"type": "DT_INT32"}}}, {"name": "StatefulPartitionedCall/mobilebert/encoder/layer_._21/ffn.1/output/dense/Tensordot/ReadVariableOp", "op": "Const", "attr": {"dtype": {"type": "DT_FLOAT"}, "value": {"tensor": {"dtype": "DT_FLOAT", "tensorShape": {"dim": [{"size": "512"}, {"size": "128"}]}}}}}, {"name": "StatefulPartitionedCall/mobilebert/encoder/layer_._21/ffn.1/intermediate/dense/Tensordot/Const", "op": "Const", "attr": {"value": {"tensor": {"dtype": "DT_INT32", "tensorShape": {"dim": [{"size": "1"}]}}}, "dtype": {"type": "DT_INT32"}}}, {"name": "StatefulPartitionedCall/mobilebert/encoder/layer_._21/ffn.1/intermediate/dense/Tensordot/axes", "op": "Const", "attr": {"dtype": {"type": "DT_INT32"}, "value": {"tensor": {"dtype": "DT_INT32", "tensorShape": {"dim": [{"size": "1"}]}}}}}, {"name": "StatefulPartitionedCall/mobilebert/encoder/layer_._21/ffn.1/intermediate/dense/Tensordot/GatherV2_1/axis", "op": "Const", "attr": {"dtype": {"type": "DT_INT32"}, "value": {"tensor": {"dtype": "DT_INT32", "tensorShape": {}}}}}, {"name": "StatefulPartitionedCall/mobilebert/encoder/layer_._21/ffn.1/intermediate/dense/Tensordot/Const_1", "op": "Const", "attr": {"dtype": {"type": "DT_INT32"}, "value": {"tensor": {"dtype": "DT_INT32", "tensorShape": {"dim": [{"size": "1"}]}}}}}, {"name": "StatefulPartitionedCall/mobilebert/encoder/layer_._21/ffn.1/intermediate/dense/Tensordot/ReadVariableOp", "op": "Const", "attr": {"dtype": {"type": "DT_FLOAT"}, "value": {"tensor": {"dtype": "DT_FLOAT", "tensorShape": {"dim": [{"size": "128"}, {"size": "512"}]}}}}}, {"name": "StatefulPartitionedCall/mobilebert/encoder/layer_._21/ffn.1/intermediate/dense/Tensordot/free", "op": "Const", "attr": {"dtype": {"type": "DT_INT32"}, "value": {"tensor": {"dtype": "DT_INT32", "tensorShape": {"dim": [{"size": "2"}]}}}}}, {"name": "StatefulPartitionedCall/mobilebert/encoder/layer_._21/ffn.1/intermediate/dense/Tensordot/GatherV2/axis", "op": "Const", "attr": {"value": {"tensor": {"dtype": "DT_INT32", "tensorShape": {}}}, "dtype": {"type": "DT_INT32"}}}, {"name": "StatefulPartitionedCall/mobilebert/encoder/layer_._21/ffn.1/intermediate/dense/Tensordot/Const_2", "op": "Const", "attr": {"dtype": {"type": "DT_INT32"}, "value": {"tensor": {"dtype": "DT_INT32", "tensorShape": {"dim": [{"size": "1"}]}}}}}, {"name": "StatefulPartitionedCall/mobilebert/encoder/layer_._21/ffn.1/intermediate/dense/Tensordot/concat_1/axis", "op": "Const", "attr": {"dtype": {"type": "DT_INT32"}, "value": {"tensor": {"dtype": "DT_INT32", "tensorShape": {}}}}}, {"name": "StatefulPartitionedCall/mobilebert/encoder/layer_._21/ffn.1/intermediate/dense/BiasAdd/ReadVariableOp", "op": "Const", "attr": {"dtype": {"type": "DT_FLOAT"}, "value": {"tensor": {"dtype": "DT_FLOAT", "tensorShape": {"dim": [{"size": "512"}]}}}}}, {"name": "StatefulPartitionedCall/mobilebert/encoder/layer_._21/ffn.1/output/dense/Tensordot/free", "op": "Const", "attr": {"dtype": {"type": "DT_INT32"}, "value": {"tensor": {"dtype": "DT_INT32", "tensorShape": {"dim": [{"size": "2"}]}}}}}, {"name": "StatefulPartitionedCall/mobilebert/encoder/layer_._21/ffn.1/output/dense/Tensordot/GatherV2/axis", "op": "Const", "attr": {"value": {"tensor": {"dtype": "DT_INT32", "tensorShape": {}}}, "dtype": {"type": "DT_INT32"}}}, {"name": "StatefulPartitionedCall/mobilebert/encoder/layer_._21/ffn.1/output/dense/Tensordot/Const_2", "op": "Const", "attr": {"dtype": {"type": "DT_INT32"}, "value": {"tensor": {"dtype": "DT_INT32", "tensorShape": {"dim": [{"size": "1"}]}}}}}, {"name": "StatefulPartitionedCall/mobilebert/encoder/layer_._21/ffn.1/output/dense/Tensordot/concat_1/axis", "op": "Const", "attr": {"dtype": {"type": "DT_INT32"}, "value": {"tensor": {"dtype": "DT_INT32", "tensorShape": {}}}}}, {"name": "StatefulPartitionedCall/mobilebert/encoder/layer_._21/ffn.1/output/dense/BiasAdd/ReadVariableOp", "op": "Const", "attr": {"dtype": {"type": "DT_FLOAT"}, "value": {"tensor": {"dtype": "DT_FLOAT", "tensorShape": {"dim": [{"size": "128"}]}}}}}, {"name": "StatefulPartitionedCall/mobilebert/encoder/layer_._21/ffn.0/output/dense/Tensordot/Const", "op": "Const", "attr": {"dtype": {"type": "DT_INT32"}, "value": {"tensor": {"dtype": "DT_INT32", "tensorShape": {"dim": [{"size": "1"}]}}}}}, {"name": "StatefulPartitionedCall/mobilebert/encoder/layer_._21/ffn.0/output/dense/Tensordot/axes", "op": "Const", "attr": {"dtype": {"type": "DT_INT32"}, "value": {"tensor": {"dtype": "DT_INT32", "tensorShape": {"dim": [{"size": "1"}]}}}}}, {"name": "StatefulPartitionedCall/mobilebert/encoder/layer_._21/ffn.0/output/dense/Tensordot/GatherV2_1/axis", "op": "Const", "attr": {"dtype": {"type": "DT_INT32"}, "value": {"tensor": {"dtype": "DT_INT32", "tensorShape": {}}}}}, {"name": "StatefulPartitionedCall/mobilebert/encoder/layer_._21/ffn.0/output/dense/Tensordot/Const_1", "op": "Const", "attr": {"dtype": {"type": "DT_INT32"}, "value": {"tensor": {"dtype": "DT_INT32", "tensorShape": {"dim": [{"size": "1"}]}}}}}, {"name": "StatefulPartitionedCall/mobilebert/encoder/layer_._21/ffn.0/output/dense/Tensordot/ReadVariableOp", "op": "Const", "attr": {"dtype": {"type": "DT_FLOAT"}, "value": {"tensor": {"dtype": "DT_FLOAT", "tensorShape": {"dim": [{"size": "512"}, {"size": "128"}]}}}}}, {"name": "StatefulPartitionedCall/mobilebert/encoder/layer_._21/ffn.0/intermediate/dense/Tensordot/Const", "op": "Const", "attr": {"dtype": {"type": "DT_INT32"}, "value": {"tensor": {"dtype": "DT_INT32", "tensorShape": {"dim": [{"size": "1"}]}}}}}, {"name": "StatefulPartitionedCall/mobilebert/encoder/layer_._21/ffn.0/intermediate/dense/Tensordot/axes", "op": "Const", "attr": {"dtype": {"type": "DT_INT32"}, "value": {"tensor": {"dtype": "DT_INT32", "tensorShape": {"dim": [{"size": "1"}]}}}}}, {"name": "StatefulPartitionedCall/mobilebert/encoder/layer_._21/ffn.0/intermediate/dense/Tensordot/GatherV2_1/axis", "op": "Const", "attr": {"value": {"tensor": {"dtype": "DT_INT32", "tensorShape": {}}}, "dtype": {"type": "DT_INT32"}}}, {"name": "StatefulPartitionedCall/mobilebert/encoder/layer_._21/ffn.0/intermediate/dense/Tensordot/Const_1", "op": "Const", "attr": {"dtype": {"type": "DT_INT32"}, "value": {"tensor": {"dtype": "DT_INT32", "tensorShape": {"dim": [{"size": "1"}]}}}}}, {"name": "StatefulPartitionedCall/mobilebert/encoder/layer_._21/ffn.0/intermediate/dense/Tensordot/ReadVariableOp", "op": "Const", "attr": {"dtype": {"type": "DT_FLOAT"}, "value": {"tensor": {"dtype": "DT_FLOAT", "tensorShape": {"dim": [{"size": "128"}, {"size": "512"}]}}}}}, {"name": "StatefulPartitionedCall/mobilebert/encoder/layer_._21/ffn.0/intermediate/dense/Tensordot/free", "op": "Const", "attr": {"dtype": {"type": "DT_INT32"}, "value": {"tensor": {"dtype": "DT_INT32", "tensorShape": {"dim": [{"size": "2"}]}}}}}, {"name": "StatefulPartitionedCall/mobilebert/encoder/layer_._21/ffn.0/intermediate/dense/Tensordot/GatherV2/axis", "op": "Const", "attr": {"dtype": {"type": "DT_INT32"}, "value": {"tensor": {"dtype": "DT_INT32", "tensorShape": {}}}}}, {"name": "StatefulPartitionedCall/mobilebert/encoder/layer_._21/ffn.0/intermediate/dense/Tensordot/Const_2", "op": "Const", "attr": {"dtype": {"type": "DT_INT32"}, "value": {"tensor": {"dtype": "DT_INT32", "tensorShape": {"dim": [{"size": "1"}]}}}}}, {"name": "StatefulPartitionedCall/mobilebert/encoder/layer_._21/ffn.0/intermediate/dense/Tensordot/concat_1/axis", "op": "Const", "attr": {"dtype": {"type": "DT_INT32"}, "value": {"tensor": {"dtype": "DT_INT32", "tensorShape": {}}}}}, {"name": "StatefulPartitionedCall/mobilebert/encoder/layer_._21/ffn.0/intermediate/dense/BiasAdd/ReadVariableOp", "op": "Const", "attr": {"dtype": {"type": "DT_FLOAT"}, "value": {"tensor": {"dtype": "DT_FLOAT", "tensorShape": {"dim": [{"size": "512"}]}}}}}, {"name": "StatefulPartitionedCall/mobilebert/encoder/layer_._21/ffn.0/output/dense/Tensordot/free", "op": "Const", "attr": {"dtype": {"type": "DT_INT32"}, "value": {"tensor": {"dtype": "DT_INT32", "tensorShape": {"dim": [{"size": "2"}]}}}}}, {"name": "StatefulPartitionedCall/mobilebert/encoder/layer_._21/ffn.0/output/dense/Tensordot/GatherV2/axis", "op": "Const", "attr": {"dtype": {"type": "DT_INT32"}, "value": {"tensor": {"dtype": "DT_INT32", "tensorShape": {}}}}}, {"name": "StatefulPartitionedCall/mobilebert/encoder/layer_._21/ffn.0/output/dense/Tensordot/Const_2", "op": "Const", "attr": {"dtype": {"type": "DT_INT32"}, "value": {"tensor": {"dtype": "DT_INT32", "tensorShape": {"dim": [{"size": "1"}]}}}}}, {"name": "StatefulPartitionedCall/mobilebert/encoder/layer_._21/ffn.0/output/dense/Tensordot/concat_1/axis", "op": "Const", "attr": {"dtype": {"type": "DT_INT32"}, "value": {"tensor": {"dtype": "DT_INT32", "tensorShape": {}}}}}, {"name": "StatefulPartitionedCall/mobilebert/encoder/layer_._21/ffn.0/output/dense/BiasAdd/ReadVariableOp", "op": "Const", "attr": {"dtype": {"type": "DT_FLOAT"}, "value": {"tensor": {"dtype": "DT_FLOAT", "tensorShape": {"dim": [{"size": "128"}]}}}}}, {"name": "StatefulPartitionedCall/mobilebert/encoder/layer_._21/attention/output/dense/Tensordot/Const", "op": "Const", "attr": {"dtype": {"type": "DT_INT32"}, "value": {"tensor": {"dtype": "DT_INT32", "tensorShape": {"dim": [{"size": "1"}]}}}}}, {"name": "StatefulPartitionedCall/mobilebert/encoder/layer_._21/attention/output/dense/Tensordot/axes", "op": "Const", "attr": {"dtype": {"type": "DT_INT32"}, "value": {"tensor": {"dtype": "DT_INT32", "tensorShape": {"dim": [{"size": "1"}]}}}}}, {"name": "StatefulPartitionedCall/mobilebert/encoder/layer_._21/attention/output/dense/Tensordot/GatherV2_1/axis", "op": "Const", "attr": {"dtype": {"type": "DT_INT32"}, "value": {"tensor": {"dtype": "DT_INT32", "tensorShape": {}}}}}, {"name": "StatefulPartitionedCall/mobilebert/encoder/layer_._21/attention/output/dense/Tensordot/Const_1", "op": "Const", "attr": {"dtype": {"type": "DT_INT32"}, "value": {"tensor": {"dtype": "DT_INT32", "tensorShape": {"dim": [{"size": "1"}]}}}}}, {"name": "StatefulPartitionedCall/mobilebert/encoder/layer_._21/attention/output/dense/Tensordot/ReadVariableOp", "op": "Const", "attr": {"dtype": {"type": "DT_FLOAT"}, "value": {"tensor": {"dtype": "DT_FLOAT", "tensorShape": {"dim": [{"size": "128"}, {"size": "128"}]}}}}}, {"name": "StatefulPartitionedCall/mobilebert/encoder/layer_._21/attention/self/query/Tensordot/Const", "op": "Const", "attr": {"dtype": {"type": "DT_INT32"}, "value": {"tensor": {"dtype": "DT_INT32", "tensorShape": {"dim": [{"size": "1"}]}}}}}, {"name": "StatefulPartitionedCall/mobilebert/encoder/layer_._21/attention/self/query/Tensordot/axes", "op": "Const", "attr": {"dtype": {"type": "DT_INT32"}, "value": {"tensor": {"dtype": "DT_INT32", "tensorShape": {"dim": [{"size": "1"}]}}}}}, {"name": "StatefulPartitionedCall/mobilebert/encoder/layer_._21/attention/self/query/Tensordot/GatherV2_1/axis", "op": "Const", "attr": {"dtype": {"type": "DT_INT32"}, "value": {"tensor": {"dtype": "DT_INT32", "tensorShape": {}}}}}, {"name": "StatefulPartitionedCall/mobilebert/encoder/layer_._21/attention/self/query/Tensordot/Const_1", "op": "Const", "attr": {"dtype": {"type": "DT_INT32"}, "value": {"tensor": {"dtype": "DT_INT32", "tensorShape": {"dim": [{"size": "1"}]}}}}}, {"name": "StatefulPartitionedCall/mobilebert/encoder/layer_._21/attention/self/query/Tensordot/ReadVariableOp", "op": "Const", "attr": {"dtype": {"type": "DT_FLOAT"}, "value": {"tensor": {"dtype": "DT_FLOAT", "tensorShape": {"dim": [{"size": "128"}, {"size": "128"}]}}}}}, {"name": "StatefulPartitionedCall/mobilebert/encoder/layer_._21/attention/self/query/Tensordot/free", "op": "Const", "attr": {"dtype": {"type": "DT_INT32"}, "value": {"tensor": {"dtype": "DT_INT32", "tensorShape": {"dim": [{"size": "2"}]}}}}}, {"name": "StatefulPartitionedCall/mobilebert/encoder/layer_._21/attention/self/query/Tensordot/GatherV2/axis", "op": "Const", "attr": {"dtype": {"type": "DT_INT32"}, "value": {"tensor": {"dtype": "DT_INT32", "tensorShape": {}}}}}, {"name": "StatefulPartitionedCall/mobilebert/encoder/layer_._21/attention/self/query/Tensordot/Const_2", "op": "Const", "attr": {"value": {"tensor": {"dtype": "DT_INT32", "tensorShape": {"dim": [{"size": "1"}]}}}, "dtype": {"type": "DT_INT32"}}}, {"name": "StatefulPartitionedCall/mobilebert/encoder/layer_._21/attention/self/query/Tensordot/concat_1/axis", "op": "Const", "attr": {"dtype": {"type": "DT_INT32"}, "value": {"tensor": {"dtype": "DT_INT32", "tensorShape": {}}}}}, {"name": "StatefulPartitionedCall/mobilebert/encoder/layer_._21/attention/self/query/BiasAdd/ReadVariableOp", "op": "Const", "attr": {"value": {"tensor": {"dtype": "DT_FLOAT", "tensorShape": {"dim": [{"size": "128"}]}}}, "dtype": {"type": "DT_FLOAT"}}}, {"name": "StatefulPartitionedCall/mobilebert/encoder/layer_._21/attention/self/Reshape/shape/1", "op": "Const", "attr": {"dtype": {"type": "DT_INT32"}, "value": {"tensor": {"dtype": "DT_INT32", "tensorShape": {}}}}}, {"name": "StatefulPartitionedCall/mobilebert/encoder/layer_._21/attention/self/Reshape/shape/2", "op": "Const", "attr": {"dtype": {"type": "DT_INT32"}, "value": {"tensor": {"dtype": "DT_INT32", "tensorShape": {}}}}}, {"name": "StatefulPartitionedCall/mobilebert/encoder/layer_._21/attention/self/Reshape/shape/3", "op": "Const", "attr": {"dtype": {"type": "DT_INT32"}, "value": {"tensor": {"dtype": "DT_INT32", "tensorShape": {}}}}}, {"name": "StatefulPartitionedCall/mobilebert/encoder/layer_._21/attention/self/transpose/perm", "op": "Const", "attr": {"dtype": {"type": "DT_INT32"}, "value": {"tensor": {"dtype": "DT_INT32", "tensorShape": {"dim": [{"size": "4"}]}}}}}, {"name": "StatefulPartitionedCall/mobilebert/encoder/layer_._21/attention/self/key/Tensordot/Const", "op": "Const", "attr": {"dtype": {"type": "DT_INT32"}, "value": {"tensor": {"dtype": "DT_INT32", "tensorShape": {"dim": [{"size": "1"}]}}}}}, {"name": "StatefulPartitionedCall/mobilebert/encoder/layer_._21/attention/self/key/Tensordot/axes", "op": "Const", "attr": {"dtype": {"type": "DT_INT32"}, "value": {"tensor": {"dtype": "DT_INT32", "tensorShape": {"dim": [{"size": "1"}]}}}}}, {"name": "StatefulPartitionedCall/mobilebert/encoder/layer_._21/attention/self/key/Tensordot/GatherV2_1/axis", "op": "Const", "attr": {"dtype": {"type": "DT_INT32"}, "value": {"tensor": {"dtype": "DT_INT32", "tensorShape": {}}}}}, {"name": "StatefulPartitionedCall/mobilebert/encoder/layer_._21/attention/self/key/Tensordot/Const_1", "op": "Const", "attr": {"dtype": {"type": "DT_INT32"}, "value": {"tensor": {"dtype": "DT_INT32", "tensorShape": {"dim": [{"size": "1"}]}}}}}, {"name": "StatefulPartitionedCall/mobilebert/encoder/layer_._21/attention/self/key/Tensordot/ReadVariableOp", "op": "Const", "attr": {"dtype": {"type": "DT_FLOAT"}, "value": {"tensor": {"dtype": "DT_FLOAT", "tensorShape": {"dim": [{"size": "128"}, {"size": "128"}]}}}}}, {"name": "StatefulPartitionedCall/mobilebert/encoder/layer_._21/bottleneck/attention/dense/Tensordot/Const", "op": "Const", "attr": {"dtype": {"type": "DT_INT32"}, "value": {"tensor": {"dtype": "DT_INT32", "tensorShape": {"dim": [{"size": "1"}]}}}}}, {"name": "StatefulPartitionedCall/mobilebert/encoder/layer_._21/bottleneck/attention/dense/Tensordot/axes", "op": "Const", "attr": {"dtype": {"type": "DT_INT32"}, "value": {"tensor": {"dtype": "DT_INT32", "tensorShape": {"dim": [{"size": "1"}]}}}}}, {"name": "StatefulPartitionedCall/mobilebert/encoder/layer_._21/bottleneck/attention/dense/Tensordot/GatherV2_1/axis", "op": "Const", "attr": {"dtype": {"type": "DT_INT32"}, "value": {"tensor": {"dtype": "DT_INT32", "tensorShape": {}}}}}, {"name": "StatefulPartitionedCall/mobilebert/encoder/layer_._21/bottleneck/attention/dense/Tensordot/Const_1", "op": "Const", "attr": {"dtype": {"type": "DT_INT32"}, "value": {"tensor": {"dtype": "DT_INT32", "tensorShape": {"dim": [{"size": "1"}]}}}}}, {"name": "StatefulPartitionedCall/mobilebert/encoder/layer_._21/bottleneck/attention/dense/Tensordot/ReadVariableOp", "op": "Const", "attr": {"dtype": {"type": "DT_FLOAT"}, "value": {"tensor": {"dtype": "DT_FLOAT", "tensorShape": {"dim": [{"size": "512"}, {"size": "128"}]}}}}}, {"name": "StatefulPartitionedCall/mobilebert/encoder/layer_._21/bottleneck/attention/dense/Tensordot/free", "op": "Const", "attr": {"dtype": {"type": "DT_INT32"}, "value": {"tensor": {"dtype": "DT_INT32", "tensorShape": {"dim": [{"size": "2"}]}}}}}, {"name": "StatefulPartitionedCall/mobilebert/encoder/layer_._21/bottleneck/attention/dense/Tensordot/GatherV2/axis", "op": "Const", "attr": {"dtype": {"type": "DT_INT32"}, "value": {"tensor": {"dtype": "DT_INT32", "tensorShape": {}}}}}, {"name": "StatefulPartitionedCall/mobilebert/encoder/layer_._21/bottleneck/attention/dense/Tensordot/Const_2", "op": "Const", "attr": {"dtype": {"type": "DT_INT32"}, "value": {"tensor": {"dtype": "DT_INT32", "tensorShape": {"dim": [{"size": "1"}]}}}}}, {"name": "StatefulPartitionedCall/mobilebert/encoder/layer_._21/bottleneck/attention/dense/Tensordot/concat_1/axis", "op": "Const", "attr": {"dtype": {"type": "DT_INT32"}, "value": {"tensor": {"dtype": "DT_INT32", "tensorShape": {}}}}}, {"name": "StatefulPartitionedCall/mobilebert/encoder/layer_._21/bottleneck/attention/dense/BiasAdd/ReadVariableOp", "op": "Const", "attr": {"dtype": {"type": "DT_FLOAT"}, "value": {"tensor": {"dtype": "DT_FLOAT", "tensorShape": {"dim": [{"size": "128"}]}}}}}, {"name": "StatefulPartitionedCall/mobilebert/encoder/layer_._21/bottleneck/attention/LayerNorm/mul/ReadVariableOp", "op": "Const", "attr": {"dtype": {"type": "DT_FLOAT"}, "value": {"tensor": {"dtype": "DT_FLOAT", "tensorShape": {"dim": [{"size": "128"}]}}}}}, {"name": "StatefulPartitionedCall/mobilebert/encoder/layer_._21/bottleneck/attention/LayerNorm/add/ReadVariableOp", "op": "Const", "attr": {"value": {"tensor": {"dtype": "DT_FLOAT", "tensorShape": {"dim": [{"size": "128"}]}}}, "dtype": {"type": "DT_FLOAT"}}}, {"name": "StatefulPartitionedCall/mobilebert/encoder/layer_._21/attention/self/key/Tensordot/free", "op": "Const", "attr": {"dtype": {"type": "DT_INT32"}, "value": {"tensor": {"dtype": "DT_INT32", "tensorShape": {"dim": [{"size": "2"}]}}}}}, {"name": "StatefulPartitionedCall/mobilebert/encoder/layer_._21/attention/self/key/Tensordot/GatherV2/axis", "op": "Const", "attr": {"dtype": {"type": "DT_INT32"}, "value": {"tensor": {"dtype": "DT_INT32", "tensorShape": {}}}}}, {"name": "StatefulPartitionedCall/mobilebert/encoder/layer_._21/attention/self/key/Tensordot/Const_2", "op": "Const", "attr": {"value": {"tensor": {"dtype": "DT_INT32", "tensorShape": {"dim": [{"size": "1"}]}}}, "dtype": {"type": "DT_INT32"}}}, {"name": "StatefulPartitionedCall/mobilebert/encoder/layer_._21/attention/self/key/Tensordot/concat_1/axis", "op": "Const", "attr": {"value": {"tensor": {"dtype": "DT_INT32", "tensorShape": {}}}, "dtype": {"type": "DT_INT32"}}}, {"name": "StatefulPartitionedCall/mobilebert/encoder/layer_._21/attention/self/key/BiasAdd/ReadVariableOp", "op": "Const", "attr": {"dtype": {"type": "DT_FLOAT"}, "value": {"tensor": {"dtype": "DT_FLOAT", "tensorShape": {"dim": [{"size": "128"}]}}}}}, {"name": "StatefulPartitionedCall/mobilebert/encoder/layer_._21/attention/self/Reshape_1/shape/1", "op": "Const", "attr": {"value": {"tensor": {"dtype": "DT_INT32", "tensorShape": {}}}, "dtype": {"type": "DT_INT32"}}}, {"name": "StatefulPartitionedCall/mobilebert/encoder/layer_._21/attention/self/Reshape_1/shape/2", "op": "Const", "attr": {"dtype": {"type": "DT_INT32"}, "value": {"tensor": {"dtype": "DT_INT32", "tensorShape": {}}}}}, {"name": "StatefulPartitionedCall/mobilebert/encoder/layer_._21/attention/self/Reshape_1/shape/3", "op": "Const", "attr": {"value": {"tensor": {"dtype": "DT_INT32", "tensorShape": {}}}, "dtype": {"type": "DT_INT32"}}}, {"name": "StatefulPartitionedCall/mobilebert/encoder/layer_._21/attention/self/transpose_1/perm", "op": "Const", "attr": {"value": {"tensor": {"dtype": "DT_INT32", "tensorShape": {"dim": [{"size": "4"}]}}}, "dtype": {"type": "DT_INT32"}}}, {"name": "ConstantFolding/StatefulPartitionedCall/mobilebert/encoder/layer_._21/attention/self/truediv_recip", "op": "Const", "attr": {"dtype": {"type": "DT_FLOAT"}, "value": {"tensor": {"dtype": "DT_FLOAT", "tensorShape": {}}}}}, {"name": "StatefulPartitionedCall/mobilebert/encoder/layer_._21/attention/self/value/Tensordot/Const", "op": "Const", "attr": {"value": {"tensor": {"dtype": "DT_INT32", "tensorShape": {"dim": [{"size": "1"}]}}}, "dtype": {"type": "DT_INT32"}}}, {"name": "StatefulPartitionedCall/mobilebert/encoder/layer_._21/attention/self/value/Tensordot/axes", "op": "Const", "attr": {"value": {"tensor": {"dtype": "DT_INT32", "tensorShape": {"dim": [{"size": "1"}]}}}, "dtype": {"type": "DT_INT32"}}}, {"name": "StatefulPartitionedCall/mobilebert/encoder/layer_._21/attention/self/value/Tensordot/GatherV2_1/axis", "op": "Const", "attr": {"dtype": {"type": "DT_INT32"}, "value": {"tensor": {"dtype": "DT_INT32", "tensorShape": {}}}}}, {"name": "StatefulPartitionedCall/mobilebert/encoder/layer_._21/attention/self/value/Tensordot/Const_1", "op": "Const", "attr": {"value": {"tensor": {"dtype": "DT_INT32", "tensorShape": {"dim": [{"size": "1"}]}}}, "dtype": {"type": "DT_INT32"}}}, {"name": "StatefulPartitionedCall/mobilebert/encoder/layer_._21/attention/self/value/Tensordot/ReadVariableOp", "op": "Const", "attr": {"dtype": {"type": "DT_FLOAT"}, "value": {"tensor": {"dtype": "DT_FLOAT", "tensorShape": {"dim": [{"size": "512"}, {"size": "128"}]}}}}}, {"name": "StatefulPartitionedCall/mobilebert/encoder/layer_._21/attention/self/value/Tensordot/free", "op": "Const", "attr": {"dtype": {"type": "DT_INT32"}, "value": {"tensor": {"dtype": "DT_INT32", "tensorShape": {"dim": [{"size": "2"}]}}}}}, {"name": "StatefulPartitionedCall/mobilebert/encoder/layer_._21/attention/self/value/Tensordot/GatherV2/axis", "op": "Const", "attr": {"dtype": {"type": "DT_INT32"}, "value": {"tensor": {"dtype": "DT_INT32", "tensorShape": {}}}}}, {"name": "StatefulPartitionedCall/mobilebert/encoder/layer_._21/attention/self/value/Tensordot/Const_2", "op": "Const", "attr": {"dtype": {"type": "DT_INT32"}, "value": {"tensor": {"dtype": "DT_INT32", "tensorShape": {"dim": [{"size": "1"}]}}}}}, {"name": "StatefulPartitionedCall/mobilebert/encoder/layer_._21/attention/self/value/Tensordot/concat_1/axis", "op": "Const", "attr": {"dtype": {"type": "DT_INT32"}, "value": {"tensor": {"dtype": "DT_INT32", "tensorShape": {}}}}}, {"name": "StatefulPartitionedCall/mobilebert/encoder/layer_._21/attention/self/value/BiasAdd/ReadVariableOp", "op": "Const", "attr": {"value": {"tensor": {"dtype": "DT_FLOAT", "tensorShape": {"dim": [{"size": "128"}]}}}, "dtype": {"type": "DT_FLOAT"}}}, {"name": "StatefulPartitionedCall/mobilebert/encoder/layer_._21/attention/self/Reshape_2/shape/1", "op": "Const", "attr": {"value": {"tensor": {"dtype": "DT_INT32", "tensorShape": {}}}, "dtype": {"type": "DT_INT32"}}}, {"name": "StatefulPartitionedCall/mobilebert/encoder/layer_._21/attention/self/Reshape_2/shape/2", "op": "Const", "attr": {"dtype": {"type": "DT_INT32"}, "value": {"tensor": {"dtype": "DT_INT32", "tensorShape": {}}}}}, {"name": "StatefulPartitionedCall/mobilebert/encoder/layer_._21/attention/self/Reshape_2/shape/3", "op": "Const", "attr": {"dtype": {"type": "DT_INT32"}, "value": {"tensor": {"dtype": "DT_INT32", "tensorShape": {}}}}}, {"name": "StatefulPartitionedCall/mobilebert/encoder/layer_._21/attention/self/transpose_2/perm", "op": "Const", "attr": {"value": {"tensor": {"dtype": "DT_INT32", "tensorShape": {"dim": [{"size": "4"}]}}}, "dtype": {"type": "DT_INT32"}}}, {"name": "StatefulPartitionedCall/mobilebert/encoder/layer_._21/attention/self/transpose_3/perm", "op": "Const", "attr": {"dtype": {"type": "DT_INT32"}, "value": {"tensor": {"dtype": "DT_INT32", "tensorShape": {"dim": [{"size": "4"}]}}}}}, {"name": "StatefulPartitionedCall/mobilebert/encoder/layer_._21/attention/self/strided_slice/stack", "op": "Const", "attr": {"value": {"tensor": {"dtype": "DT_INT32", "tensorShape": {"dim": [{"size": "1"}]}}}, "dtype": {"type": "DT_INT32"}}}, {"name": "StatefulPartitionedCall/mobilebert/encoder/layer_._21/attention/self/strided_slice/stack_1", "op": "Const", "attr": {"value": {"tensor": {"dtype": "DT_INT32", "tensorShape": {"dim": [{"size": "1"}]}}}, "dtype": {"type": "DT_INT32"}}}, {"name": "StatefulPartitionedCall/mobilebert/encoder/layer_._21/attention/self/strided_slice/stack_2", "op": "Const", "attr": {"value": {"tensor": {"dtype": "DT_INT32", "tensorShape": {"dim": [{"size": "1"}]}}}, "dtype": {"type": "DT_INT32"}}}, {"name": "StatefulPartitionedCall/mobilebert/encoder/layer_._21/attention/self/Reshape_3/shape/1", "op": "Const", "attr": {"dtype": {"type": "DT_INT32"}, "value": {"tensor": {"dtype": "DT_INT32", "tensorShape": {}}}}}, {"name": "StatefulPartitionedCall/mobilebert/encoder/layer_._21/attention/self/Reshape_3/shape/2", "op": "Const", "attr": {"value": {"tensor": {"dtype": "DT_INT32", "tensorShape": {}}}, "dtype": {"type": "DT_INT32"}}}, {"name": "StatefulPartitionedCall/mobilebert/encoder/layer_._21/attention/output/dense/Tensordot/free", "op": "Const", "attr": {"dtype": {"type": "DT_INT32"}, "value": {"tensor": {"dtype": "DT_INT32", "tensorShape": {"dim": [{"size": "2"}]}}}}}, {"name": "StatefulPartitionedCall/mobilebert/encoder/layer_._21/attention/output/dense/Tensordot/GatherV2/axis", "op": "Const", "attr": {"value": {"tensor": {"dtype": "DT_INT32", "tensorShape": {}}}, "dtype": {"type": "DT_INT32"}}}, {"name": "StatefulPartitionedCall/mobilebert/encoder/layer_._21/attention/output/dense/Tensordot/Const_2", "op": "Const", "attr": {"dtype": {"type": "DT_INT32"}, "value": {"tensor": {"dtype": "DT_INT32", "tensorShape": {"dim": [{"size": "1"}]}}}}}, {"name": "StatefulPartitionedCall/mobilebert/encoder/layer_._21/attention/output/dense/Tensordot/concat_1/axis", "op": "Const", "attr": {"dtype": {"type": "DT_INT32"}, "value": {"tensor": {"dtype": "DT_INT32", "tensorShape": {}}}}}, {"name": "StatefulPartitionedCall/mobilebert/encoder/layer_._21/attention/output/dense/BiasAdd/ReadVariableOp", "op": "Const", "attr": {"dtype": {"type": "DT_FLOAT"}, "value": {"tensor": {"dtype": "DT_FLOAT", "tensorShape": {"dim": [{"size": "128"}]}}}}}, {"name": "StatefulPartitionedCall/mobilebert/encoder/layer_._21/bottleneck/input/dense/Tensordot/Const", "op": "Const", "attr": {"dtype": {"type": "DT_INT32"}, "value": {"tensor": {"dtype": "DT_INT32", "tensorShape": {"dim": [{"size": "1"}]}}}}}, {"name": "StatefulPartitionedCall/mobilebert/encoder/layer_._21/bottleneck/input/dense/Tensordot/axes", "op": "Const", "attr": {"dtype": {"type": "DT_INT32"}, "value": {"tensor": {"dtype": "DT_INT32", "tensorShape": {"dim": [{"size": "1"}]}}}}}, {"name": "StatefulPartitionedCall/mobilebert/encoder/layer_._21/bottleneck/input/dense/Tensordot/GatherV2_1/axis", "op": "Const", "attr": {"dtype": {"type": "DT_INT32"}, "value": {"tensor": {"dtype": "DT_INT32", "tensorShape": {}}}}}, {"name": "StatefulPartitionedCall/mobilebert/encoder/layer_._21/bottleneck/input/dense/Tensordot/Const_1", "op": "Const", "attr": {"dtype": {"type": "DT_INT32"}, "value": {"tensor": {"dtype": "DT_INT32", "tensorShape": {"dim": [{"size": "1"}]}}}}}, {"name": "StatefulPartitionedCall/mobilebert/encoder/layer_._21/bottleneck/input/dense/Tensordot/ReadVariableOp", "op": "Const", "attr": {"dtype": {"type": "DT_FLOAT"}, "value": {"tensor": {"dtype": "DT_FLOAT", "tensorShape": {"dim": [{"size": "512"}, {"size": "128"}]}}}}}, {"name": "StatefulPartitionedCall/mobilebert/encoder/layer_._21/bottleneck/input/dense/Tensordot/free", "op": "Const", "attr": {"value": {"tensor": {"dtype": "DT_INT32", "tensorShape": {"dim": [{"size": "2"}]}}}, "dtype": {"type": "DT_INT32"}}}, {"name": "StatefulPartitionedCall/mobilebert/encoder/layer_._21/bottleneck/input/dense/Tensordot/GatherV2/axis", "op": "Const", "attr": {"value": {"tensor": {"dtype": "DT_INT32", "tensorShape": {}}}, "dtype": {"type": "DT_INT32"}}}, {"name": "StatefulPartitionedCall/mobilebert/encoder/layer_._21/bottleneck/input/dense/Tensordot/Const_2", "op": "Const", "attr": {"value": {"tensor": {"dtype": "DT_INT32", "tensorShape": {"dim": [{"size": "1"}]}}}, "dtype": {"type": "DT_INT32"}}}, {"name": "StatefulPartitionedCall/mobilebert/encoder/layer_._21/bottleneck/input/dense/Tensordot/concat_1/axis", "op": "Const", "attr": {"dtype": {"type": "DT_INT32"}, "value": {"tensor": {"dtype": "DT_INT32", "tensorShape": {}}}}}, {"name": "StatefulPartitionedCall/mobilebert/encoder/layer_._21/bottleneck/input/dense/BiasAdd/ReadVariableOp", "op": "Const", "attr": {"value": {"tensor": {"dtype": "DT_FLOAT", "tensorShape": {"dim": [{"size": "128"}]}}}, "dtype": {"type": "DT_FLOAT"}}}, {"name": "StatefulPartitionedCall/mobilebert/encoder/layer_._21/bottleneck/input/LayerNorm/mul/ReadVariableOp", "op": "Const", "attr": {"value": {"tensor": {"dtype": "DT_FLOAT", "tensorShape": {"dim": [{"size": "128"}]}}}, "dtype": {"type": "DT_FLOAT"}}}, {"name": "StatefulPartitionedCall/mobilebert/encoder/layer_._21/bottleneck/input/LayerNorm/add/ReadVariableOp", "op": "Const", "attr": {"dtype": {"type": "DT_FLOAT"}, "value": {"tensor": {"dtype": "DT_FLOAT", "tensorShape": {"dim": [{"size": "128"}]}}}}}, {"name": "StatefulPartitionedCall/mobilebert/encoder/layer_._21/attention/output/LayerNorm/mul/ReadVariableOp", "op": "Const", "attr": {"dtype": {"type": "DT_FLOAT"}, "value": {"tensor": {"dtype": "DT_FLOAT", "tensorShape": {"dim": [{"size": "128"}]}}}}}, {"name": "StatefulPartitionedCall/mobilebert/encoder/layer_._21/attention/output/LayerNorm/add/ReadVariableOp", "op": "Const", "attr": {"dtype": {"type": "DT_FLOAT"}, "value": {"tensor": {"dtype": "DT_FLOAT", "tensorShape": {"dim": [{"size": "128"}]}}}}}, {"name": "StatefulPartitionedCall/mobilebert/encoder/layer_._21/ffn.0/output/LayerNorm/mul/ReadVariableOp", "op": "Const", "attr": {"dtype": {"type": "DT_FLOAT"}, "value": {"tensor": {"dtype": "DT_FLOAT", "tensorShape": {"dim": [{"size": "128"}]}}}}}, {"name": "StatefulPartitionedCall/mobilebert/encoder/layer_._21/ffn.0/output/LayerNorm/add/ReadVariableOp", "op": "Const", "attr": {"dtype": {"type": "DT_FLOAT"}, "value": {"tensor": {"dtype": "DT_FLOAT", "tensorShape": {"dim": [{"size": "128"}]}}}}}, {"name": "StatefulPartitionedCall/mobilebert/encoder/layer_._21/ffn.1/output/LayerNorm/mul/ReadVariableOp", "op": "Const", "attr": {"dtype": {"type": "DT_FLOAT"}, "value": {"tensor": {"dtype": "DT_FLOAT", "tensorShape": {"dim": [{"size": "128"}]}}}}}, {"name": "StatefulPartitionedCall/mobilebert/encoder/layer_._21/ffn.1/output/LayerNorm/add/ReadVariableOp", "op": "Const", "attr": {"value": {"tensor": {"dtype": "DT_FLOAT", "tensorShape": {"dim": [{"size": "128"}]}}}, "dtype": {"type": "DT_FLOAT"}}}, {"name": "StatefulPartitionedCall/mobilebert/encoder/layer_._21/ffn.2/output/LayerNorm/mul/ReadVariableOp", "op": "Const", "attr": {"value": {"tensor": {"dtype": "DT_FLOAT", "tensorShape": {"dim": [{"size": "128"}]}}}, "dtype": {"type": "DT_FLOAT"}}}, {"name": "StatefulPartitionedCall/mobilebert/encoder/layer_._21/ffn.2/output/LayerNorm/add/ReadVariableOp", "op": "Const", "attr": {"dtype": {"type": "DT_FLOAT"}, "value": {"tensor": {"dtype": "DT_FLOAT", "tensorShape": {"dim": [{"size": "128"}]}}}}}, {"name": "StatefulPartitionedCall/mobilebert/encoder/layer_._21/output/LayerNorm/mul/ReadVariableOp", "op": "Const", "attr": {"dtype": {"type": "DT_FLOAT"}, "value": {"tensor": {"dtype": "DT_FLOAT", "tensorShape": {"dim": [{"size": "128"}]}}}}}, {"name": "StatefulPartitionedCall/mobilebert/encoder/layer_._21/output/LayerNorm/add/ReadVariableOp", "op": "Const", "attr": {"value": {"tensor": {"dtype": "DT_FLOAT", "tensorShape": {"dim": [{"size": "128"}]}}}, "dtype": {"type": "DT_FLOAT"}}}, {"name": "StatefulPartitionedCall/mobilebert/encoder/layer_._21/output/bottleneck/dense/Tensordot/free", "op": "Const", "attr": {"value": {"tensor": {"dtype": "DT_INT32", "tensorShape": {"dim": [{"size": "2"}]}}}, "dtype": {"type": "DT_INT32"}}}, {"name": "StatefulPartitionedCall/mobilebert/encoder/layer_._21/output/bottleneck/dense/Tensordot/GatherV2/axis", "op": "Const", "attr": {"dtype": {"type": "DT_INT32"}, "value": {"tensor": {"dtype": "DT_INT32", "tensorShape": {}}}}}, {"name": "StatefulPartitionedCall/mobilebert/encoder/layer_._21/output/bottleneck/dense/Tensordot/Const_2", "op": "Const", "attr": {"dtype": {"type": "DT_INT32"}, "value": {"tensor": {"dtype": "DT_INT32", "tensorShape": {"dim": [{"size": "1"}]}}}}}, {"name": "StatefulPartitionedCall/mobilebert/encoder/layer_._21/output/bottleneck/dense/Tensordot/concat_1/axis", "op": "Const", "attr": {"dtype": {"type": "DT_INT32"}, "value": {"tensor": {"dtype": "DT_INT32", "tensorShape": {}}}}}, {"name": "StatefulPartitionedCall/mobilebert/encoder/layer_._21/output/bottleneck/dense/BiasAdd/ReadVariableOp", "op": "Const", "attr": {"value": {"tensor": {"dtype": "DT_FLOAT", "tensorShape": {"dim": [{"size": "512"}]}}}, "dtype": {"type": "DT_FLOAT"}}}, {"name": "StatefulPartitionedCall/mobilebert/encoder/layer_._20/output/bottleneck/dense/Tensordot/Const", "op": "Const", "attr": {"value": {"tensor": {"dtype": "DT_INT32", "tensorShape": {"dim": [{"size": "1"}]}}}, "dtype": {"type": "DT_INT32"}}}, {"name": "StatefulPartitionedCall/mobilebert/encoder/layer_._20/output/bottleneck/dense/Tensordot/axes", "op": "Const", "attr": {"dtype": {"type": "DT_INT32"}, "value": {"tensor": {"dtype": "DT_INT32", "tensorShape": {"dim": [{"size": "1"}]}}}}}, {"name": "StatefulPartitionedCall/mobilebert/encoder/layer_._20/output/bottleneck/dense/Tensordot/GatherV2_1/axis", "op": "Const", "attr": {"dtype": {"type": "DT_INT32"}, "value": {"tensor": {"dtype": "DT_INT32", "tensorShape": {}}}}}, {"name": "StatefulPartitionedCall/mobilebert/encoder/layer_._20/output/bottleneck/dense/Tensordot/Const_1", "op": "Const", "attr": {"dtype": {"type": "DT_INT32"}, "value": {"tensor": {"dtype": "DT_INT32", "tensorShape": {"dim": [{"size": "1"}]}}}}}, {"name": "StatefulPartitionedCall/mobilebert/encoder/layer_._20/output/bottleneck/dense/Tensordot/ReadVariableOp", "op": "Const", "attr": {"dtype": {"type": "DT_FLOAT"}, "value": {"tensor": {"dtype": "DT_FLOAT", "tensorShape": {"dim": [{"size": "128"}, {"size": "512"}]}}}}}, {"name": "StatefulPartitionedCall/mobilebert/encoder/layer_._20/output/dense/Tensordot/Const", "op": "Const", "attr": {"dtype": {"type": "DT_INT32"}, "value": {"tensor": {"dtype": "DT_INT32", "tensorShape": {"dim": [{"size": "1"}]}}}}}, {"name": "StatefulPartitionedCall/mobilebert/encoder/layer_._20/output/dense/Tensordot/axes", "op": "Const", "attr": {"dtype": {"type": "DT_INT32"}, "value": {"tensor": {"dtype": "DT_INT32", "tensorShape": {"dim": [{"size": "1"}]}}}}}, {"name": "StatefulPartitionedCall/mobilebert/encoder/layer_._20/output/dense/Tensordot/GatherV2_1/axis", "op": "Const", "attr": {"dtype": {"type": "DT_INT32"}, "value": {"tensor": {"dtype": "DT_INT32", "tensorShape": {}}}}}, {"name": "StatefulPartitionedCall/mobilebert/encoder/layer_._20/output/dense/Tensordot/Const_1", "op": "Const", "attr": {"dtype": {"type": "DT_INT32"}, "value": {"tensor": {"dtype": "DT_INT32", "tensorShape": {"dim": [{"size": "1"}]}}}}}, {"name": "StatefulPartitionedCall/mobilebert/encoder/layer_._20/output/dense/Tensordot/ReadVariableOp", "op": "Const", "attr": {"dtype": {"type": "DT_FLOAT"}, "value": {"tensor": {"dtype": "DT_FLOAT", "tensorShape": {"dim": [{"size": "512"}, {"size": "128"}]}}}}}, {"name": "StatefulPartitionedCall/mobilebert/encoder/layer_._20/intermediate/dense/Tensordot/Const", "op": "Const", "attr": {"dtype": {"type": "DT_INT32"}, "value": {"tensor": {"dtype": "DT_INT32", "tensorShape": {"dim": [{"size": "1"}]}}}}}, {"name": "StatefulPartitionedCall/mobilebert/encoder/layer_._20/intermediate/dense/Tensordot/axes", "op": "Const", "attr": {"dtype": {"type": "DT_INT32"}, "value": {"tensor": {"dtype": "DT_INT32", "tensorShape": {"dim": [{"size": "1"}]}}}}}, {"name": "StatefulPartitionedCall/mobilebert/encoder/layer_._20/intermediate/dense/Tensordot/GatherV2_1/axis", "op": "Const", "attr": {"value": {"tensor": {"dtype": "DT_INT32", "tensorShape": {}}}, "dtype": {"type": "DT_INT32"}}}, {"name": "StatefulPartitionedCall/mobilebert/encoder/layer_._20/intermediate/dense/Tensordot/Const_1", "op": "Const", "attr": {"dtype": {"type": "DT_INT32"}, "value": {"tensor": {"dtype": "DT_INT32", "tensorShape": {"dim": [{"size": "1"}]}}}}}, {"name": "StatefulPartitionedCall/mobilebert/encoder/layer_._20/intermediate/dense/Tensordot/ReadVariableOp", "op": "Const", "attr": {"dtype": {"type": "DT_FLOAT"}, "value": {"tensor": {"dtype": "DT_FLOAT", "tensorShape": {"dim": [{"size": "128"}, {"size": "512"}]}}}}}, {"name": "StatefulPartitionedCall/mobilebert/encoder/layer_._20/intermediate/dense/Tensordot/free", "op": "Const", "attr": {"dtype": {"type": "DT_INT32"}, "value": {"tensor": {"dtype": "DT_INT32", "tensorShape": {"dim": [{"size": "2"}]}}}}}, {"name": "StatefulPartitionedCall/mobilebert/encoder/layer_._20/intermediate/dense/Tensordot/GatherV2/axis", "op": "Const", "attr": {"dtype": {"type": "DT_INT32"}, "value": {"tensor": {"dtype": "DT_INT32", "tensorShape": {}}}}}, {"name": "StatefulPartitionedCall/mobilebert/encoder/layer_._20/intermediate/dense/Tensordot/Const_2", "op": "Const", "attr": {"dtype": {"type": "DT_INT32"}, "value": {"tensor": {"dtype": "DT_INT32", "tensorShape": {"dim": [{"size": "1"}]}}}}}, {"name": "StatefulPartitionedCall/mobilebert/encoder/layer_._20/intermediate/dense/Tensordot/concat_1/axis", "op": "Const", "attr": {"dtype": {"type": "DT_INT32"}, "value": {"tensor": {"dtype": "DT_INT32", "tensorShape": {}}}}}, {"name": "StatefulPartitionedCall/mobilebert/encoder/layer_._20/intermediate/dense/BiasAdd/ReadVariableOp", "op": "Const", "attr": {"value": {"tensor": {"dtype": "DT_FLOAT", "tensorShape": {"dim": [{"size": "512"}]}}}, "dtype": {"type": "DT_FLOAT"}}}, {"name": "StatefulPartitionedCall/mobilebert/encoder/layer_._20/output/dense/Tensordot/free", "op": "Const", "attr": {"value": {"tensor": {"dtype": "DT_INT32", "tensorShape": {"dim": [{"size": "2"}]}}}, "dtype": {"type": "DT_INT32"}}}, {"name": "StatefulPartitionedCall/mobilebert/encoder/layer_._20/output/dense/Tensordot/GatherV2/axis", "op": "Const", "attr": {"dtype": {"type": "DT_INT32"}, "value": {"tensor": {"dtype": "DT_INT32", "tensorShape": {}}}}}, {"name": "StatefulPartitionedCall/mobilebert/encoder/layer_._20/output/dense/Tensordot/Const_2", "op": "Const", "attr": {"dtype": {"type": "DT_INT32"}, "value": {"tensor": {"dtype": "DT_INT32", "tensorShape": {"dim": [{"size": "1"}]}}}}}, {"name": "StatefulPartitionedCall/mobilebert/encoder/layer_._20/output/dense/Tensordot/concat_1/axis", "op": "Const", "attr": {"dtype": {"type": "DT_INT32"}, "value": {"tensor": {"dtype": "DT_INT32", "tensorShape": {}}}}}, {"name": "StatefulPartitionedCall/mobilebert/encoder/layer_._20/output/dense/BiasAdd/ReadVariableOp", "op": "Const", "attr": {"dtype": {"type": "DT_FLOAT"}, "value": {"tensor": {"dtype": "DT_FLOAT", "tensorShape": {"dim": [{"size": "128"}]}}}}}, {"name": "StatefulPartitionedCall/mobilebert/encoder/layer_._20/ffn.2/output/dense/Tensordot/Const", "op": "Const", "attr": {"dtype": {"type": "DT_INT32"}, "value": {"tensor": {"dtype": "DT_INT32", "tensorShape": {"dim": [{"size": "1"}]}}}}}, {"name": "StatefulPartitionedCall/mobilebert/encoder/layer_._20/ffn.2/output/dense/Tensordot/axes", "op": "Const", "attr": {"dtype": {"type": "DT_INT32"}, "value": {"tensor": {"dtype": "DT_INT32", "tensorShape": {"dim": [{"size": "1"}]}}}}}, {"name": "StatefulPartitionedCall/mobilebert/encoder/layer_._20/ffn.2/output/dense/Tensordot/GatherV2_1/axis", "op": "Const", "attr": {"dtype": {"type": "DT_INT32"}, "value": {"tensor": {"dtype": "DT_INT32", "tensorShape": {}}}}}, {"name": "StatefulPartitionedCall/mobilebert/encoder/layer_._20/ffn.2/output/dense/Tensordot/Const_1", "op": "Const", "attr": {"dtype": {"type": "DT_INT32"}, "value": {"tensor": {"dtype": "DT_INT32", "tensorShape": {"dim": [{"size": "1"}]}}}}}, {"name": "StatefulPartitionedCall/mobilebert/encoder/layer_._20/ffn.2/output/dense/Tensordot/ReadVariableOp", "op": "Const", "attr": {"value": {"tensor": {"dtype": "DT_FLOAT", "tensorShape": {"dim": [{"size": "512"}, {"size": "128"}]}}}, "dtype": {"type": "DT_FLOAT"}}}, {"name": "StatefulPartitionedCall/mobilebert/encoder/layer_._20/ffn.2/intermediate/dense/Tensordot/Const", "op": "Const", "attr": {"dtype": {"type": "DT_INT32"}, "value": {"tensor": {"dtype": "DT_INT32", "tensorShape": {"dim": [{"size": "1"}]}}}}}, {"name": "StatefulPartitionedCall/mobilebert/encoder/layer_._20/ffn.2/intermediate/dense/Tensordot/axes", "op": "Const", "attr": {"dtype": {"type": "DT_INT32"}, "value": {"tensor": {"dtype": "DT_INT32", "tensorShape": {"dim": [{"size": "1"}]}}}}}, {"name": "StatefulPartitionedCall/mobilebert/encoder/layer_._20/ffn.2/intermediate/dense/Tensordot/GatherV2_1/axis", "op": "Const", "attr": {"dtype": {"type": "DT_INT32"}, "value": {"tensor": {"dtype": "DT_INT32", "tensorShape": {}}}}}, {"name": "StatefulPartitionedCall/mobilebert/encoder/layer_._20/ffn.2/intermediate/dense/Tensordot/Const_1", "op": "Const", "attr": {"dtype": {"type": "DT_INT32"}, "value": {"tensor": {"dtype": "DT_INT32", "tensorShape": {"dim": [{"size": "1"}]}}}}}, {"name": "StatefulPartitionedCall/mobilebert/encoder/layer_._20/ffn.2/intermediate/dense/Tensordot/ReadVariableOp", "op": "Const", "attr": {"value": {"tensor": {"dtype": "DT_FLOAT", "tensorShape": {"dim": [{"size": "128"}, {"size": "512"}]}}}, "dtype": {"type": "DT_FLOAT"}}}, {"name": "StatefulPartitionedCall/mobilebert/encoder/layer_._20/ffn.2/intermediate/dense/Tensordot/free", "op": "Const", "attr": {"value": {"tensor": {"dtype": "DT_INT32", "tensorShape": {"dim": [{"size": "2"}]}}}, "dtype": {"type": "DT_INT32"}}}, {"name": "StatefulPartitionedCall/mobilebert/encoder/layer_._20/ffn.2/intermediate/dense/Tensordot/GatherV2/axis", "op": "Const", "attr": {"dtype": {"type": "DT_INT32"}, "value": {"tensor": {"dtype": "DT_INT32", "tensorShape": {}}}}}, {"name": "StatefulPartitionedCall/mobilebert/encoder/layer_._20/ffn.2/intermediate/dense/Tensordot/Const_2", "op": "Const", "attr": {"value": {"tensor": {"dtype": "DT_INT32", "tensorShape": {"dim": [{"size": "1"}]}}}, "dtype": {"type": "DT_INT32"}}}, {"name": "StatefulPartitionedCall/mobilebert/encoder/layer_._20/ffn.2/intermediate/dense/Tensordot/concat_1/axis", "op": "Const", "attr": {"dtype": {"type": "DT_INT32"}, "value": {"tensor": {"dtype": "DT_INT32", "tensorShape": {}}}}}, {"name": "StatefulPartitionedCall/mobilebert/encoder/layer_._20/ffn.2/intermediate/dense/BiasAdd/ReadVariableOp", "op": "Const", "attr": {"dtype": {"type": "DT_FLOAT"}, "value": {"tensor": {"dtype": "DT_FLOAT", "tensorShape": {"dim": [{"size": "512"}]}}}}}, {"name": "StatefulPartitionedCall/mobilebert/encoder/layer_._20/ffn.2/output/dense/Tensordot/free", "op": "Const", "attr": {"value": {"tensor": {"dtype": "DT_INT32", "tensorShape": {"dim": [{"size": "2"}]}}}, "dtype": {"type": "DT_INT32"}}}, {"name": "StatefulPartitionedCall/mobilebert/encoder/layer_._20/ffn.2/output/dense/Tensordot/GatherV2/axis", "op": "Const", "attr": {"dtype": {"type": "DT_INT32"}, "value": {"tensor": {"dtype": "DT_INT32", "tensorShape": {}}}}}, {"name": "StatefulPartitionedCall/mobilebert/encoder/layer_._20/ffn.2/output/dense/Tensordot/Const_2", "op": "Const", "attr": {"value": {"tensor": {"dtype": "DT_INT32", "tensorShape": {"dim": [{"size": "1"}]}}}, "dtype": {"type": "DT_INT32"}}}, {"name": "StatefulPartitionedCall/mobilebert/encoder/layer_._20/ffn.2/output/dense/Tensordot/concat_1/axis", "op": "Const", "attr": {"dtype": {"type": "DT_INT32"}, "value": {"tensor": {"dtype": "DT_INT32", "tensorShape": {}}}}}, {"name": "StatefulPartitionedCall/mobilebert/encoder/layer_._20/ffn.2/output/dense/BiasAdd/ReadVariableOp", "op": "Const", "attr": {"dtype": {"type": "DT_FLOAT"}, "value": {"tensor": {"dtype": "DT_FLOAT", "tensorShape": {"dim": [{"size": "128"}]}}}}}, {"name": "StatefulPartitionedCall/mobilebert/encoder/layer_._20/ffn.1/output/dense/Tensordot/Const", "op": "Const", "attr": {"dtype": {"type": "DT_INT32"}, "value": {"tensor": {"dtype": "DT_INT32", "tensorShape": {"dim": [{"size": "1"}]}}}}}, {"name": "StatefulPartitionedCall/mobilebert/encoder/layer_._20/ffn.1/output/dense/Tensordot/axes", "op": "Const", "attr": {"dtype": {"type": "DT_INT32"}, "value": {"tensor": {"dtype": "DT_INT32", "tensorShape": {"dim": [{"size": "1"}]}}}}}, {"name": "StatefulPartitionedCall/mobilebert/encoder/layer_._20/ffn.1/output/dense/Tensordot/GatherV2_1/axis", "op": "Const", "attr": {"dtype": {"type": "DT_INT32"}, "value": {"tensor": {"dtype": "DT_INT32", "tensorShape": {}}}}}, {"name": "StatefulPartitionedCall/mobilebert/encoder/layer_._20/ffn.1/output/dense/Tensordot/Const_1", "op": "Const", "attr": {"value": {"tensor": {"dtype": "DT_INT32", "tensorShape": {"dim": [{"size": "1"}]}}}, "dtype": {"type": "DT_INT32"}}}, {"name": "StatefulPartitionedCall/mobilebert/encoder/layer_._20/ffn.1/output/dense/Tensordot/ReadVariableOp", "op": "Const", "attr": {"dtype": {"type": "DT_FLOAT"}, "value": {"tensor": {"dtype": "DT_FLOAT", "tensorShape": {"dim": [{"size": "512"}, {"size": "128"}]}}}}}, {"name": "StatefulPartitionedCall/mobilebert/encoder/layer_._20/ffn.1/intermediate/dense/Tensordot/Const", "op": "Const", "attr": {"value": {"tensor": {"dtype": "DT_INT32", "tensorShape": {"dim": [{"size": "1"}]}}}, "dtype": {"type": "DT_INT32"}}}, {"name": "StatefulPartitionedCall/mobilebert/encoder/layer_._20/ffn.1/intermediate/dense/Tensordot/axes", "op": "Const", "attr": {"value": {"tensor": {"dtype": "DT_INT32", "tensorShape": {"dim": [{"size": "1"}]}}}, "dtype": {"type": "DT_INT32"}}}, {"name": "StatefulPartitionedCall/mobilebert/encoder/layer_._20/ffn.1/intermediate/dense/Tensordot/GatherV2_1/axis", "op": "Const", "attr": {"dtype": {"type": "DT_INT32"}, "value": {"tensor": {"dtype": "DT_INT32", "tensorShape": {}}}}}, {"name": "StatefulPartitionedCall/mobilebert/encoder/layer_._20/ffn.1/intermediate/dense/Tensordot/Const_1", "op": "Const", "attr": {"dtype": {"type": "DT_INT32"}, "value": {"tensor": {"dtype": "DT_INT32", "tensorShape": {"dim": [{"size": "1"}]}}}}}, {"name": "StatefulPartitionedCall/mobilebert/encoder/layer_._20/ffn.1/intermediate/dense/Tensordot/ReadVariableOp", "op": "Const", "attr": {"dtype": {"type": "DT_FLOAT"}, "value": {"tensor": {"dtype": "DT_FLOAT", "tensorShape": {"dim": [{"size": "128"}, {"size": "512"}]}}}}}, {"name": "StatefulPartitionedCall/mobilebert/encoder/layer_._20/ffn.1/intermediate/dense/Tensordot/free", "op": "Const", "attr": {"dtype": {"type": "DT_INT32"}, "value": {"tensor": {"dtype": "DT_INT32", "tensorShape": {"dim": [{"size": "2"}]}}}}}, {"name": "StatefulPartitionedCall/mobilebert/encoder/layer_._20/ffn.1/intermediate/dense/Tensordot/GatherV2/axis", "op": "Const", "attr": {"dtype": {"type": "DT_INT32"}, "value": {"tensor": {"dtype": "DT_INT32", "tensorShape": {}…
Tensordot/Const_1", "shape": [1], "dtype": "int32"}, {"name": "StatefulPartitionedCall/mobilebert/encoder/layer_._0/output/dense/Tensordot/ReadVariableOp", "shape": [512, 128], "dtype": "float32", "quantization": {"dtype": "uint8", "min": -0.7395185283586091, "scale": 0.0057774885028016336, "original_dtype": "float32"}}, {"name": "StatefulPartitionedCall/mobilebert/encoder/layer_._0/intermediate/dense/Tensordot/Const", "shape": [1], "dtype": "int32"}, {"name": "StatefulPartitionedCall/mobilebert/encoder/layer_._0/intermediate/dense/Tensordot/axes", "shape": [1], "dtype": "int32"}, {"name": "StatefulPartitionedCall/mobilebert/encoder/layer_._0/intermediate/dense/Tensordot/GatherV2_1/axis", "shape": [], "dtype": "int32"}, {"name": "StatefulPartitionedCall/mobilebert/encoder/layer_._0/intermediate/dense/Tensordot/Const_1", "shape": [1], "dtype": "int32"}, {"name": "StatefulPartitionedCall/mobilebert/encoder/layer_._0/intermediate/dense/Tensordot/ReadVariableOp", "shape": [128, 512], "dtype": "float32", "quantization": {"dtype": "uint8", "min": -0.6869490139624652, "scale": 0.005677264578202191, "original_dtype": "float32"}}, {"name": "StatefulPartitionedCall/mobilebert/encoder/layer_._0/intermediate/dense/Tensordot/free", "shape": [2], "dtype": "int32"}, {"name": "StatefulPartitionedCall/mobilebert/encoder/layer_._0/intermediate/dense/Tensordot/GatherV2/axis", "shape": [], "dtype": "int32"}, {"name": "StatefulPartitionedCall/mobilebert/encoder/layer_._0/intermediate/dense/Tensordot/Const_2", "shape": [1], "dtype": "int32"}, {"name": "StatefulPartitionedCall/mobilebert/encoder/layer_._0/intermediate/dense/Tensordot/concat_1/axis", "shape": [], "dtype": "int32"}, {"name": "StatefulPartitionedCall/mobilebert/encoder/layer_._0/intermediate/dense/BiasAdd/ReadVariableOp", "shape": [512], "dtype": "float32", "quantization": {"dtype": "uint8", "min": -3.2497842639100316, "scale": 0.015185907775280522, "original_dtype": "float32"}}, {"name": "StatefulPartitionedCall/mobilebert/encoder/layer_._0/output/dense/Tensordot/free", "shape": [2], "dtype": "int32"}, {"name": "StatefulPartitionedCall/mobilebert/encoder/layer_._0/output/dense/Tensordot/GatherV2/axis", "shape": [], "dtype": "int32"}, {"name": "StatefulPartitionedCall/mobilebert/encoder/layer_._0/output/dense/Tensordot/Const_2", "shape": [1], "dtype": "int32"}, {"name": "StatefulPartitionedCall/mobilebert/encoder/layer_._0/output/dense/Tensordot/concat_1/axis", "shape": [], "dtype": "int32"}, {"name": "StatefulPartitionedCall/mobilebert/encoder/layer_._0/output/dense/BiasAdd/ReadVariableOp", "shape": [128], "dtype": "float32", "quantization": {"dtype": "uint8", "min": -0.6596562846034181, "scale": 0.0034179082103804044, "original_dtype": "float32"}}, {"name": "StatefulPartitionedCall/mobilebert/encoder/layer_._0/ffn.2/output/dense/Tensordot/Const", "shape": [1], "dtype": "int32"}, {"name": "StatefulPartitionedCall/mobilebert/encoder/layer_._0/ffn.2/output/dense/Tensordot/axes", "shape": [1], "dtype": "int32"}, {"name": "StatefulPartitionedCall/mobilebert/encoder/layer_._0/ffn.2/output/dense/Tensordot/GatherV2_1/axis", "shape": [], "dtype": "int32"}, {"name": "StatefulPartitionedCall/mobilebert/encoder/layer_._0/ffn.2/output/dense/Tensordot/Const_1", "shape": [1], "dtype": "int32"}, {"name": "StatefulPartitionedCall/mobilebert/encoder/layer_._0/ffn.2/output/dense/Tensordot/ReadVariableOp", "shape": [512, 128], "dtype": "float32", "quantization": {"dtype": "uint8", "min": -0.7390632061397329, "scale": 0.005317001483019661, "original_dtype": "float32"}}, {"name": "StatefulPartitionedCall/mobilebert/encoder/layer_._0/ffn.2/intermediate/dense/Tensordot/Const", "shape": [1], "dtype": "int32"}, {"name": "StatefulPartitionedCall/mobilebert/encoder/layer_._0/ffn.2/intermediate/dense/Tensordot/axes", "shape": [1], "dtype": "int32"}, {"name": "StatefulPartitionedCall/mobilebert/encoder/layer_._0/ffn.2/intermediate/dense/Tensordot/GatherV2_1/axis", "shape": [], "dtype": "int32"}, {"name": "StatefulPartitionedCall/mobilebert/encoder/layer_._0/ffn.2/intermediate/dense/Tensordot/Const_1", "shape": [1], "dtype": "int32"}, {"name": "StatefulPartitionedCall/mobilebert/encoder/layer_._0/ffn.2/intermediate/dense/Tensordot/ReadVariableOp", "shape": [128, 512], "dtype": "float32", "quantization": {"dtype": "uint8", "min": -0.7092103789834414, "scale": 0.005292614768533145, "original_dtype": "float32"}}, {"name": "StatefulPartitionedCall/mobilebert/encoder/layer_._0/ffn.2/intermediate/dense/Tensordot/free", "shape": [2], "dtype": "int32"}, {"name": "StatefulPartitionedCall/mobilebert/encoder/layer_._0/ffn.2/intermediate/dense/Tensordot/GatherV2/axis", "shape": [], "dtype": "int32"}, {"name": "StatefulPartitionedCall/mobilebert/encoder/layer_._0/ffn.2/intermediate/dense/Tensordot/Const_2", "shape": [1], "dtype": "int32"}, {"name": "StatefulPartitionedCall/mobilebert/encoder/layer_._0/ffn.2/intermediate/dense/Tensordot/concat_1/axis", "shape": [], "dtype": "int32"}, {"name": "StatefulPartitionedCall/mobilebert/encoder/layer_._0/ffn.2/intermediate/dense/BiasAdd/ReadVariableOp", "shape": [512], "dtype": "float32", "quantization": {"dtype": "uint8", "min": -2.2123134031015286, "scale": 0.011345196938982198, "original_dtype": "float32"}}, {"name": "StatefulPartitionedCall/mobilebert/encoder/layer_._0/ffn.2/output/dense/Tensordot/free", "shape": [2], "dtype": "int32"}, {"name": "StatefulPartitionedCall/mobilebert/encoder/layer_._0/ffn.2/output/dense/Tensordot/GatherV2/axis", "shape": [], "dtype": "int32"}, {"name": "StatefulPartitionedCall/mobilebert/encoder/layer_._0/ffn.2/output/dense/Tensordot/Const_2", "shape": [1], "dtype": "int32"}, {"name": "StatefulPartitionedCall/mobilebert/encoder/layer_._0/ffn.2/output/dense/Tensordot/concat_1/axis", "shape": [], "dtype": "int32"}, {"name": "StatefulPartitionedCall/mobilebert/encoder/layer_._0/ffn.2/output/dense/BiasAdd/ReadVariableOp", "shape": [128], "dtype": "float32", "quantization": {"dtype": "uint8", "min": -1.0837692513185389, "scale": 0.006020940285102994, "original_dtype": "float32"}}, {"name": "StatefulPartitionedCall/mobilebert/encoder/layer_._0/ffn.1/output/dense/Tensordot/Const", "shape": [1], "dtype": "int32"}, {"name": "StatefulPartitionedCall/mobilebert/encoder/layer_._0/ffn.1/output/dense/Tensordot/axes", "shape": [1], "dtype": "int32"}, {"name": "StatefulPartitionedCall/mobilebert/encoder/layer_._0/ffn.1/output/dense/Tensordot/GatherV2_1/axis", "shape": [], "dtype": "int32"}, {"name": "StatefulPartitionedCall/mobilebert/encoder/layer_._0/ffn.1/output/dense/Tensordot/Const_1", "shape": [1], "dtype": "int32"}, {"name": "StatefulPartitionedCall/mobilebert/encoder/layer_._0/ffn.1/output/dense/Tensordot/ReadVariableOp", "shape": [512, 128], "dtype": "float32", "quantization": {"dtype": "uint8", "min": -0.8531153847189511, "scale": 0.006613297555960861, "original_dtype": "float32"}}, {"name": "StatefulPartitionedCall/mobilebert/encoder/layer_._0/ffn.1/intermediate/dense/Tensordot/Const", "shape": [1], "dtype": "int32"}, {"name": "StatefulPartitionedCall/mobilebert/encoder/layer_._0/ffn.1/intermediate/dense/Tensordot/axes", "shape": [1], "dtype": "int32"}, {"name": "StatefulPartitionedCall/mobilebert/encoder/layer_._0/ffn.1/intermediate/dense/Tensordot/GatherV2_1/axis", "shape": [], "dtype": "int32"}, {"name": "StatefulPartitionedCall/mobilebert/encoder/layer_._0/ffn.1/intermediate/dense/Tensordot/Const_1", "shape": [1], "dtype": "int32"}, {"name": "StatefulPartitionedCall/mobilebert/encoder/layer_._0/ffn.1/intermediate/dense/Tensordot/ReadVariableOp", "shape": [128, 512], "dtype": "float32", "quantization": {"dtype": "uint8", "min": -0.5505234830519732, "scale": 0.004829153360105028, "original_dtype": "float32"}}, {"name": "StatefulPartitionedCall/mobilebert/encoder/layer_._0/ffn.1/intermediate/dense/Tensordot/free", "shape": [2], "dtype": "int32"}, {"name": "StatefulPartitionedCall/mobilebert/encoder/layer_._0/ffn.1/intermediate/dense/Tensordot/GatherV2/axis", "shape": [], "dtype": "int32"}, {"name": "StatefulPartitionedCall/mobilebert/encoder/layer_._0/ffn.1/intermediate/dense/Tensordot/Const_2", "shape": [1], "dtype": "int32"}, {"name": "StatefulPartitionedCall/mobilebert/encoder/layer_._0/ffn.1/intermediate/dense/Tensordot/concat_1/axis", "shape": [], "dtype": "int32"}, {"name": "StatefulPartitionedCall/mobilebert/encoder/layer_._0/ffn.1/intermediate/dense/BiasAdd/ReadVariableOp", "shape": [512], "dtype": "float32", "quantization": {"dtype": "uint8", "min": -2.9819296705956555, "scale": 0.012853145131877824, "original_dtype": "float32"}}, {"name": "StatefulPartitionedCall/mobilebert/encoder/layer_._0/ffn.1/output/dense/Tensordot/free", "shape": [2], "dtype": "int32"}, {"name": "StatefulPartitionedCall/mobilebert/encoder/layer_._0/ffn.1/output/dense/Tensordot/GatherV2/axis", "shape": [], "dtype": "int32"}, {"name": "StatefulPartitionedCall/mobilebert/encoder/layer_._0/ffn.1/output/dense/Tensordot/Const_2", "shape": [1], "dtype": "int32"}, {"name": "StatefulPartitionedCall/mobilebert/encoder/layer_._0/ffn.1/output/dense/Tensordot/concat_1/axis", "shape": [], "dtype": "int32"}, {"name": "StatefulPartitionedCall/mobilebert/encoder/layer_._0/ffn.1/output/dense/BiasAdd/ReadVariableOp", "shape": [128], "dtype": "float32", "quantization": {"dtype": "uint8", "min": -0.6226934306761798, "scale": 0.006045567288118251, "original_dtype": "float32"}}, {"name": "StatefulPartitionedCall/mobilebert/encoder/layer_._0/ffn.0/output/dense/Tensordot/Const", "shape": [1], "dtype": "int32"}, {"name": "StatefulPartitionedCall/mobilebert/encoder/layer_._0/ffn.0/output/dense/Tensordot/axes", "shape": [1], "dtype": "int32"}, {"name": "StatefulPartitionedCall/mobilebert/encoder/layer_._0/ffn.0/output/dense/Tensordot/GatherV2_1/axis", "shape": [], "dtype": "int32"}, {"name": "StatefulPartitionedCall/mobilebert/encoder/layer_._0/ffn.0/output/dense/Tensordot/Const_1", "shape": [1], "dtype": "int32"}, {"name": "StatefulPartitionedCall/mobilebert/encoder/layer_._0/ffn.0/output/dense/Tensordot/ReadVariableOp", "shape": [512, 128], "dtype": "float32", "quantization": {"dtype": "uint8", "min": -0.8184046894896264, "scale": 0.006107497682758406, "original_dtype": "float32"}}, {"name": "StatefulPartitionedCall/mobilebert/encoder/layer_._0/ffn.0/intermediate/dense/Tensordot/Const", "shape": [1], "dtype": "int32"}, {"name": "StatefulPartitionedCall/mobilebert/encoder/layer_._0/ffn.0/intermediate/dense/Tensordot/axes", "shape": [1], "dtype": "int32"}, {"name": "StatefulPartitionedCall/mobilebert/encoder/layer_._0/ffn.0/intermediate/dense/Tensordot/GatherV2_1/axis", "shape": [], "dtype": "int32"}, {"name": "StatefulPartitionedCall/mobilebert/encoder/layer_._0/ffn.0/intermediate/dense/Tensordot/Const_1", "shape": [1], "dtype": "int32"}, {"name": "StatefulPartitionedCall/mobilebert/encoder/layer_._0/ffn.0/intermediate/dense/Tensordot/ReadVariableOp", "shape": [128, 512], "dtype": "float32", "quantization": {"dtype": "uint8", "min": -0.833140347518173, "scale": 0.0058671855459026265, "original_dtype": "float32"}}, {"name": "StatefulPartitionedCall/mobilebert/encoder/layer_._0/ffn.0/intermediate/dense/Tensordot/free", "shape": [2], "dtype": "int32"}, {"name": "StatefulPartitionedCall/mobilebert/encoder/layer_._0/ffn.0/intermediate/dense/Tensordot/GatherV2/axis", "shape": [], "dtype": "int32"}, {"name": "StatefulPartitionedCall/mobilebert/encoder/layer_._0/ffn.0/intermediate/dense/Tensordot/Const_2", "shape": [1], "dtype": "int32"}, {"name": "StatefulPartitionedCall/mobilebert/encoder/layer_._0/ffn.0/intermediate/dense/Tensordot/concat_1/axis", "shape": [], "dtype": "int32"}, {"name": "StatefulPartitionedCall/mobilebert/encoder/layer_._0/ffn.0/intermediate/dense/BiasAdd/ReadVariableOp", "shape": [512], "dtype": "float32", "quantization": {"dtype": "uint8", "min": -2.518852242301492, "scale": 0.010857121734058155, "original_dtype": "float32"}}, {"name": "StatefulPartitionedCall/mobilebert/encoder/layer_._0/ffn.0/output/dense/Tensordot/free", "shape": [2], "dtype": "int32"}, {"name": "StatefulPartitionedCall/mobilebert/encoder/layer_._0/ffn.0/output/dense/Tensordot/GatherV2/axis", "shape": [], "dtype": "int32"}, {"name": "StatefulPartitionedCall/mobilebert/encoder/layer_._0/ffn.0/output/dense/Tensordot/Const_2", "shape": [1], "dtype": "int32"}, {"name": "StatefulPartitionedCall/mobilebert/encoder/layer_._0/ffn.0/output/dense/Tensordot/concat_1/axis", "shape": [], "dtype": "int32"}, {"name": "StatefulPartitionedCall/mobilebert/encoder/layer_._0/ffn.0/output/dense/BiasAdd/ReadVariableOp", "shape": [128], "dtype": "float32", "quantization": {"dtype": "uint8", "min": -0.5813643941692278, "scale": 0.006606413570104861, "original_dtype": "float32"}}, {"name": "StatefulPartitionedCall/mobilebert/encoder/layer_._0/attention/output/dense/Tensordot/Const", "shape": [1], "dtype": "int32"}, {"name": "StatefulPartitionedCall/mobilebert/encoder/layer_._0/attention/output/dense/Tensordot/axes", "shape": [1], "dtype": "int32"}, {"name": "StatefulPartitionedCall/mobilebert/encoder/layer_._0/attention/output/dense/Tensordot/GatherV2_1/axis", "shape": [], "dtype": "int32"}, {"name": "StatefulPartitionedCall/mobilebert/encoder/layer_._0/attention/output/dense/Tensordot/Const_1", "shape": [1], "dtype": "int32"}, {"name": "StatefulPartitionedCall/mobilebert/encoder/layer_._0/attention/output/dense/Tensordot/ReadVariableOp", "shape": [128, 128], "dtype": "float32", "quantization": {"dtype": "uint8", "min": -0.6263069078034046, "scale": 0.005010455262427237, "original_dtype": "float32"}}, {"name": "StatefulPartitionedCall/mobilebert/encoder/layer_._0/attention/self/query/Tensordot/Const", "shape": [1], "dtype": "int32"}, {"name": "StatefulPartitionedCall/mobilebert/encoder/layer_._0/attention/self/query/Tensordot/axes", "shape": [1], "dtype": "int32"}, {"name": "StatefulPartitionedCall/mobilebert/encoder/layer_._0/attention/self/query/Tensordot/GatherV2_1/axis", "shape": [], "dtype": "int32"}, {"name": "StatefulPartitionedCall/mobilebert/encoder/layer_._0/attention/self/query/Tensordot/Const_1", "shape": [1], "dtype": "int32"}, {"name": "StatefulPartitionedCall/mobilebert/encoder/layer_._0/attention/self/query/Tensordot/ReadVariableOp", "shape": [128, 128], "dtype": "float32", "quantization": {"dtype": "uint8", "min": -0.6964339894406936, "scale": 0.006274180085051293, "original_dtype": "float32"}}, {"name": "StatefulPartitionedCall/mobilebert/encoder/layer_._0/attention/self/query/Tensordot/free", "shape": [2], "dtype": "int32"}, {"name": "StatefulPartitionedCall/mobilebert/encoder/layer_._0/attention/self/query/Tensordot/GatherV2/axis", "shape": [], "dtype": "int32"}, {"name": "StatefulPartitionedCall/mobilebert/encoder/layer_._0/attention/self/query/Tensordot/Const_2", "shape": [1], "dtype": "int32"}, {"name": "StatefulPartitionedCall/mobilebert/encoder/layer_._0/attention/self/query/Tensordot/concat_1/axis", "shape": [], "dtype": "int32"}, {"name": "StatefulPartitionedCall/mobilebert/encoder/layer_._0/attention/self/query/BiasAdd/ReadVariableOp", "shape": [128], "dtype": "float32", "quantization": {"dtype": "uint8", "min": -1.634118775760426, "scale": 0.015712680536157944, "original_dtype": "float32"}}, {"name": "StatefulPartitionedCall/mobilebert/encoder/layer_._0/attention/self/Reshape/shape/1", "shape": [], "dtype": "int32"}, {"name": "StatefulPartitionedCall/mobilebert/encoder/layer_._0/attention/self/Reshape/shape/2", "shape": [], "dtype": "int32"}, {"name": "StatefulPartitionedCall/mobilebert/encoder/layer_._0/attention/self/Reshape/shape/3", "shape": [], "dtype": "int32"}, {"name": "StatefulPartitionedCall/mobilebert/encoder/layer_._0/attention/self/transpose/perm", "shape": [4], "dtype": "int32"}, {"name": "StatefulPartitionedCall/mobilebert/encoder/layer_._0/attention/self/key/Tensordot/Const", "shape": [1], "dtype": "int32"}, {"name": "StatefulPartitionedCall/mobilebert/encoder/layer_._0/attention/self/key/Tensordot/axes", "shape": [1], "dtype": "int32"}, {"name": "StatefulPartitionedCall/mobilebert/encoder/layer_._0/attention/self/key/Tensordot/GatherV2_1/axis", "shape": [], "dtype": "int32"}, {"name": "StatefulPartitionedCall/mobilebert/encoder/layer_._0/attention/self/key/Tensordot/Const_1", "shape": [1], "dtype": "int32"}, {"name": "StatefulPartitionedCall/mobilebert/encoder/layer_._0/attention/self/key/Tensordot/ReadVariableOp", "shape": [128, 128], "dtype": "float32", "quantization": {"dtype": "uint8", "min": -0.8798423430498908, "scale": 0.006110016271179798, "original_dtype": "float32"}}, {"name": "StatefulPartitionedCall/mobilebert/encoder/layer_._0/bottleneck/attention/dense/Tensordot/Const", "shape": [1], "dtype": "int32"}, {"name": "StatefulPartitionedCall/mobilebert/encoder/layer_._0/bottleneck/attention/dense/Tensordot/axes", "shape": [1], "dtype": "int32"}, {"name": "StatefulPartitionedCall/mobilebert/encoder/layer_._0/bottleneck/attention/dense/Tensordot/GatherV2_1/axis", "shape": [], "dtype": "int32"}, {"name": "StatefulPartitionedCall/mobilebert/encoder/layer_._0/bottleneck/attention/dense/Tensordot/Const_1", "shape": [1], "dtype": "int32"}, {"name": "StatefulPartitionedCall/mobilebert/encoder/layer_._0/bottleneck/attention/dense/Tensordot/ReadVariableOp", "shape": [512, 128], "dtype": "float32", "quantization": {"dtype": "uint8", "min": -1.4158611054513968, "scale": 0.013357180240107517, "original_dtype": "float32"}}, {"name": "StatefulPartitionedCall/mobilebert/encoder/layer_._0/bottleneck/attention/dense/Tensordot/free", "shape": [2], "dtype": "int32"}, {"name": "StatefulPartitionedCall/mobilebert/encoder/layer_._0/bottleneck/attention/dense/Tensordot/GatherV2/axis", "shape": [], "dtype": "int32"}, {"name": "StatefulPartitionedCall/mobilebert/encoder/layer_._0/bottleneck/attention/dense/Tensordot/Const_2", "shape": [1], "dtype": "int32"}, {"name": "StatefulPartitionedCall/mobilebert/encoder/layer_._0/bottleneck/attention/dense/Tensordot/concat_1/axis", "shape": [], "dtype": "int32"}, {"name": "StatefulPartitionedCall/mobilebert/encoder/layer_._0/bottleneck/attention/dense/BiasAdd/ReadVariableOp", "shape": [128], "dtype": "float32", "quantization": {"dtype": "uint8", "min": -0.24883090281019024, "scale": 0.002262099116456275, "original_dtype": "float32"}}, {"name": "StatefulPartitionedCall/mobilebert/encoder/layer_._0/bottleneck/attention/LayerNorm/mul/ReadVariableOp", "shape": [128], "dtype": "float32", "quantization": {"dtype": "uint8", "min": 0.1144338846206665, "scale": 0.0020260034822950175, "original_dtype": "float32"}}, {"name": "StatefulPartitionedCall/mobilebert/encoder/layer_._0/bottleneck/attention/LayerNorm/add/ReadVariableOp", "shape": [128], "dtype": "float32", "quantization": {"dtype": "uint8", "min": -0.26081693815250023, "scale": 0.0020865355052200017, "original_dtype": "float32"}}, {"name": "StatefulPartitionedCall/mobilebert/encoder/layer_._0/attention/self/key/Tensordot/free", "shape": [2], "dtype": "int32"}, {"name": "StatefulPartitionedCall/mobilebert/encoder/layer_._0/attention/self/key/Tensordot/GatherV2/axis", "shape": [], "dtype": "int32"}, {"name": "StatefulPartitionedCall/mobilebert/encoder/layer_._0/attention/self/key/Tensordot/Const_2", "shape": [1], "dtype": "int32"}, {"name": "StatefulPartitionedCall/mobilebert/encoder/layer_._0/attention/self/key/Tensordot/concat_1/axis", "shape": [], "dtype": "int32"}, {"name": "StatefulPartitionedCall/mobilebert/encoder/layer_._0/attention/self/key/BiasAdd/ReadVariableOp", "shape": [128], "dtype": "float32", "quantization": {"dtype": "uint8", "min": -9.749111456029555, "scale": 0.09284868053361481, "original_dtype": "float32"}}, {"name": "StatefulPartitionedCall/mobilebert/encoder/layer_._0/attention/self/Reshape_1/shape/1", "shape": [], "dtype": "int32"}, {"name": "StatefulPartitionedCall/mobilebert/encoder/layer_._0/attention/self/Reshape_1/shape/2", "shape": [], "dtype": "int32"}, {"name": "StatefulPartitionedCall/mobilebert/encoder/layer_._0/attention/self/Reshape_1/shape/3", "shape": [], "dtype": "int32"}, {"name": "StatefulPartitionedCall/mobilebert/encoder/layer_._0/attention/self/transpose_1/perm", "shape": [4], "dtype": "int32"}, {"name": "ConstantFolding/StatefulPartitionedCall/mobilebert/encoder/layer_._0/attention/self/truediv_recip", "shape": [], "dtype": "float32", "quantization": {"dtype": "uint8", "min": 0.1767766922712326, "scale": 1.0, "original_dtype": "float32"}}, {"name": "StatefulPartitionedCall/mobilebert/encoder/layer_._0/attention/self/value/Tensordot/Const", "shape": [1], "dtype": "int32"}, {"name": "StatefulPartitionedCall/mobilebert/encoder/layer_._0/attention/self/value/Tensordot/axes", "shape": [1], "dtype": "int32"}, {"name": "StatefulPartitionedCall/mobilebert/encoder/layer_._0/attention/self/value/Tensordot/GatherV2_1/axis", "shape": [], "dtype": "int32"}, {"name": "StatefulPartitionedCall/mobilebert/encoder/layer_._0/attention/self/value/Tensordot/Const_1", "shape": [1], "dtype": "int32"}, {"name": "StatefulPartitionedCall/mobilebert/encoder/layer_._0/attention/self/value/Tensordot/ReadVariableOp", "shape": [512, 128], "dtype": "float32", "quantization": {"dtype": "uint8", "min": -0.8825843789998222, "scale": 0.00653766206666535, "original_dtype": "float32"}}, {"name": "StatefulPartitionedCall/mobilebert/encoder/layer_._0/attention/self/value/Tensordot/free", "shape": [2], "dtype": "int32"}, {"name": "StatefulPartitionedCall/mobilebert/encoder/layer_._0/attention/self/value/Tensordot/GatherV2/axis", "shape": [], "dtype": "int32"}, {"name": "StatefulPartitionedCall/mobilebert/encoder/layer_._0/attention/self/value/Tensordot/Const_2", "shape": [1], "dtype": "int32"}, {"name": "StatefulPartitionedCall/mobilebert/encoder/layer_._0/attention/self/value/Tensordot/concat_1/axis", "shape": [], "dtype": "int32"}, {"name": "StatefulPartitionedCall/mobilebert/encoder/layer_._0/attention/self/value/BiasAdd/ReadVariableOp", "shape": [128], "dtype": "float32", "quantization": {"dtype": "uint8", "min": -0.557143383400113, "scale": 0.004974494494643866, "original_dtype": "float32"}}, {"name": "StatefulPartitionedCall/mobilebert/encoder/layer_._0/attention/self/Reshape_2/shape/1", "shape": [], "dtype": "int32"}, {"name": "StatefulPartitionedCall/mobilebert/encoder/layer_._0/attention/self/Reshape_2/shape/2", "shape": [], "dtype": "int32"}, {"name": "StatefulPartitionedCall/mobilebert/encoder/layer_._0/attention/self/Reshape_2/shape/3", "shape": [], "dtype": "int32"}, {"name": "StatefulPartitionedCall/mobilebert/encoder/layer_._0/attention/self/transpose_2/perm", "shape": [4], "dtype": "int32"}, {"name": "StatefulPartitionedCall/mobilebert/encoder/layer_._0/attention/self/transpose_3/perm", "shape": [4], "dtype": "int32"}, {"name": "StatefulPartitionedCall/mobilebert/Const", "shape": [], "dtype": "float32", "quantization": {"dtype": "uint8", "min": 1.0, "scale": 1.0, "original_dtype": "float32"}}, {"name": "StatefulPartitionedCall/mobilebert/Reshape/shape/1", "shape": [], "dtype": "int32"}, {"name": "StatefulPartitionedCall/mobilebert/Reshape/shape/2", "shape": [], "dtype": "int32"}, {"name": "StatefulPartitionedCall/mobilebert/Reshape/shape/3", "shape": [], "dtype": "int32"}, {"name": "StatefulPartitionedCall/mobilebert/Const_1", "shape": [], "dtype": "float32", "quantization": {"dtype": "uint8", "min": -10000.0, "scale": 1.0, "original_dtype": "float32"}}, {"name": "StatefulPartitionedCall/mobilebert/encoder/layer_._0/attention/self/strided_slice/stack", "shape": [1], "dtype": "int32"}, {"name": "StatefulPartitionedCall/mobilebert/encoder/layer_._0/attention/self/strided_slice/stack_1", "shape": [1], "dtype": "int32"}, {"name": "StatefulPartitionedCall/mobilebert/encoder/layer_._0/attention/self/strided_slice/stack_2", "shape": [1], "dtype": "int32"}, {"name": "StatefulPartitionedCall/mobilebert/encoder/layer_._0/attention/self/Reshape_3/shape/1", "shape": [], "dtype": "int32"}, {"name": "StatefulPartitionedCall/mobilebert/encoder/layer_._0/attention/self/Reshape_3/shape/2", "shape": [], "dtype": "int32"}, {"name": "StatefulPartitionedCall/mobilebert/encoder/layer_._0/attention/output/dense/Tensordot/free", "shape": [2], "dtype": "int32"}, {"name": "StatefulPartitionedCall/mobilebert/encoder/layer_._0/attention/output/dense/Tensordot/GatherV2/axis", "shape": [], "dtype": "int32"}, {"name": "StatefulPartitionedCall/mobilebert/encoder/layer_._0/attention/output/dense/Tensordot/Const_2", "shape": [1], "dtype": "int32"}, {"name": "StatefulPartitionedCall/mobilebert/encoder/layer_._0/attention/output/dense/Tensordot/concat_1/axis", "shape": [], "dtype": "int32"}, {"name": "StatefulPartitionedCall/mobilebert/encoder/layer_._0/attention/output/dense/BiasAdd/ReadVariableOp", "shape": [128], "dtype": "float32", "quantization": {"dtype": "uint8", "min": -1.7864028159309837, "scale": 0.015268400136162253, "original_dtype": "float32"}}, {"name": "StatefulPartitionedCall/mobilebert/encoder/layer_._0/bottleneck/input/dense/Tensordot/Const", "shape": [1], "dtype": "int32"}, {"name": "StatefulPartitionedCall/mobilebert/encoder/layer_._0/bottleneck/input/dense/Tensordot/axes", "shape": [1], "dtype": "int32"}, {"name": "StatefulPartitionedCall/mobilebert/encoder/layer_._0/bottleneck/input/dense/Tensordot/GatherV2_1/axis", "shape": [], "dtype": "int32"}, {"name": "StatefulPartitionedCall/mobilebert/encoder/layer_._0/bottleneck/input/dense/Tensordot/Const_1", "shape": [1], "dtype": "int32"}, {"name": "StatefulPartitionedCall/mobilebert/encoder/layer_._0/bottleneck/input/dense/Tensordot/ReadVariableOp", "shape": [512, 128], "dtype": "float32", "quantization": {"dtype": "uint8", "min": -1.0322500060586368, "scale": 0.007320922028784658, "original_dtype": "float32"}}, {"name": "StatefulPartitionedCall/mobilebert/encoder/layer_._0/bottleneck/input/dense/Tensordot/free", "shape": [2], "dtype": "int32"}, {"name": "StatefulPartitionedCall/mobilebert/encoder/layer_._0/bottleneck/input/dense/Tensordot/GatherV2/axis", "shape": [], "dtype": "int32"}, {"name": "StatefulPartitionedCall/mobilebert/encoder/layer_._0/bottleneck/input/dense/Tensordot/Const_2", "shape": [1], "dtype": "int32"}, {"name": "StatefulPartitionedCall/mobilebert/encoder/layer_._0/bottleneck/input/dense/Tensordot/concat_1/axis", "shape": [], "dtype": "int32"}, {"name": "StatefulPartitionedCall/mobilebert/encoder/layer_._0/bottleneck/input/dense/BiasAdd/ReadVariableOp", "shape": [128], "dtype": "float32", "quantization": {"dtype": "uint8", "min": -1.7443992208032046, "scale": 0.01490939504960004, "original_dtype": "float32"}}, {"name": "StatefulPartitionedCall/mobilebert/encoder/layer_._0/bottleneck/input/LayerNorm/mul/ReadVariableOp", "shape": [128], "dtype": "float32", "quantization": {"dtype": "uint8", "min": 0.3465905785560608, "scale": 0.005972739528207218, "original_dtype": "float32"}}, {"name": "StatefulPartitionedCall/mobilebert/encoder/layer_._0/bottleneck/input/LayerNorm/add/ReadVariableOp", "shape": [128], "dtype": "float32", "quantization": {"dtype": "uint8", "min": -1.7864028159309837, "scale": 0.015268400136162253, "original_dtype": "float32"}}, {"name": "StatefulPartitionedCall/mobilebert/encoder/layer_._0/attention/output/LayerNorm/mul/ReadVariableOp", "shape": [128], "dtype": "float32", "quantization": {"dtype": "uint8", "min": 0.3965167701244354, "scale": 0.0036198472275453457, "original_dtype": "float32"}}, {"name": "StatefulPartitionedCall/mobilebert/encoder/layer_._0/attention/output/LayerNorm/add/ReadVariableOp", "shape": [128], "dtype": "float32", "quantization": {"dtype": "uint8", "min": -1.9036479870478311, "scale": 0.015997041907964967, "original_dtype": "float32"}}, {"name": "StatefulPartitionedCall/mobilebert/encoder/layer_._0/ffn.0/output/LayerNorm/mul/ReadVariableOp", "shape": [128], "dtype": "float32", "quantization": {"dtype": "uint8", "min": 0.4397277534008026, "scale": 0.0008551659537296669, "original_dtype": "float32"}}, {"name": "StatefulPartitionedCall/mobilebert/encoder/layer_._0/ffn.0/output/LayerNorm/add/ReadVariableOp", "shape": [128], "dtype": "float32", "quantization": {"dtype": "uint8", "min": -0.4918386459350586, "scale": 0.00565331776936849, "original_dtype": "float32"}}, {"name": "StatefulPartitionedCall/mobilebert/encoder/layer_._0/ffn.1/output/LayerNorm/mul/ReadVariableOp", "shape": [128], "dtype": "float32", "quantization": {"dtype": "uint8", "min": 0.3942510187625885, "scale": 0.0008135527956719492, "original_dtype": "float32"}}, {"name": "StatefulPartitionedCall/mobilebert/encoder/layer_._0/ffn.1/output/LayerNorm/add/ReadVariableOp", "shape": [128], "dtype": "float32", "quantization": {"dtype": "uint8", "min": -0.474220630234363, "scale": 0.004838986022799622, "original_dtype": "float32"}}, {"name": "StatefulPartitionedCall/mobilebert/encoder/layer_._0/ffn.2/output/LayerNorm/mul/ReadVariableOp", "shape": [128], "dtype": "float32", "quantization": {"dtype": "uint8", "min": 0.32874810695648193, "scale": 0.000990603951846852, "original_dtype": "float32"}}, {"name": "StatefulPartitionedCall/mobilebert/encoder/layer_._0/ffn.2/output/LayerNorm/add/ReadVariableOp", "shape": [128], "dtype": "float32", "quantization": {"dtype": "uint8", "min": -0.9233669550979839, "scale": 0.0047352151543486355, "original_dtype": "float32"}}, {"name": "StatefulPartitionedCall/mobilebert/encoder/layer_._0/output/LayerNorm/mul/ReadVariableOp", "shape": [128], "dtype": "float32", "quantization": {"dtype": "uint8", "min": 0.20942170917987823, "scale": 0.0005235700630674175, "original_dtype": "float32"}}, {"name": "StatefulPartitionedCall/mobilebert/encoder/layer_._0/output/LayerNorm/add/ReadVariableOp", "shape": [128], "dtype": "float32", "quantization": {"dtype": "uint8", "min": -0.3541244922899732, "scale": 0.0016703985485376097, "original_dtype": "float32"}}, {"name": "StatefulPartitionedCall/mobilebert/encoder/layer_._0/output/bottleneck/dense/Tensordot/free", "shape": [2], "dtype": "int32"}, {"name": "StatefulPartitionedCall/mobilebert/encoder/layer_._0/output/bottleneck/dense/Tensordot/GatherV2/axis", "shape": [], "dtype": "int32"}, {"name": "StatefulPartitionedCall/mobilebert/encoder/layer_._0/output/bottleneck/dense/Tensordot/Const_2", "shape": [1], "dtype": "int32"}, {"name": "StatefulPartitionedCall/mobilebert/encoder/layer_._0/output/bottleneck/dense/Tensordot/concat_1/axis", "shape": [], "dtype": "int32"}, {"name": "StatefulPartitionedCall/mobilebert/encoder/layer_._0/output/bottleneck/dense/BiasAdd/ReadVariableOp", "shape": [512], "dtype": "float32", "quantization": {"dtype": "uint8", "min": -0.08972128971534617, "scale": 0.0007294413797995623, "original_dtype": "float32"}}, {"name": "StatefulPartitionedCall/mobilebert/embeddings/embedding_transformation/BiasAdd", "shape": [1, 512, 512], "dtype": "float32", "quantization": {"dtype": "uint8", "min": -1.3525136914907718, "scale": 0.022923960872724945, "original_dtype": "float32"}}, {"name": "StatefulPartitionedCall/mobilebert/embeddings/embedding_transformation/Tensordot/Const", "shape": [1], "dtype": "int32"}, {"name": "StatefulPartitionedCall/mobilebert/embeddings/embedding_transformation/Tensordot/axes", "shape": [1], "dtype": "int32"}, {"name": "StatefulPartitionedCall/mobilebert/embeddings/embedding_transformation/Tensordot/GatherV2_1/axis", "shape": [], "dtype": "int32"}, {"name": "StatefulPartitionedCall/mobilebert/embeddings/embedding_transformation/Tensordot/Const_1", "shape": [1], "dtype": "int32"}, {"name": "StatefulPartitionedCall/mobilebert/embeddings/embedding_transformation/Tensordot/ReadVariableOp", "shape": [384, 512], "dtype": "float32", "quantization": {"dtype": "uint8", "min": -1.234251990037806, "scale": 0.009142607333613377, "original_dtype": "float32"}}, {"name": "StatefulPartitionedCall/mobilebert/embeddings/strided_slice_1/stack", "shape": [2], "dtype": "int32"}, {"name": "StatefulPartitionedCall/mobilebert/embeddings/strided_slice_1/stack_1", "shape": [2], "dtype": "int32"}, {"name": "StatefulPartitionedCall/mobilebert/embeddings/strided_slice_1/stack_2", "shape": [2], "dtype": "int32"}, {"name": "StatefulPartitionedCall/mobilebert/embeddings/Pad/paddings", "shape": [3, 2], "dtype": "int32"}, {"name": "unknown", "shape": [30522, 128], "dtype": "float32", "quantization": {"dtype": "uint8", "min": -0.7050282973869174, "scale": 0.005685712075700947, "original_dtype": "float32"}}, {"name": "StatefulPartitionedCall/mobilebert/embeddings/Gather/axis", "shape": [], "dtype": "int32"}, {"name": "StatefulPartitionedCall/mobilebert/embeddings/strided_slice_2/stack", "shape": [2], "dtype": "int32"}, {"name": "StatefulPartitionedCall/mobilebert/embeddings/strided_slice_2/stack_1", "shape": [2], "dtype": "int32"}, {"name": "StatefulPartitionedCall/mobilebert/embeddings/strided_slice_2/stack_2", "shape": [2], "dtype": "int32"}, {"name": "StatefulPartitionedCall/mobilebert/embeddings/Pad_1/paddings", "shape": [3, 2], "dtype": "int32"}, {"name": "StatefulPartitionedCall/mobilebert/embeddings/concat/axis", "shape": [], "dtype": "int32"}, {"name": "StatefulPartitionedCall/mobilebert/embeddings/embedding_transformation/Tensordot/free", "shape": [2], "dtype": "int32"}, {"name": "StatefulPartitionedCall/mobilebert/embeddings/embedding_transformation/Tensordot/GatherV2/axis", "shape": [], "dtype": "int32"}, {"name": "StatefulPartitionedCall/mobilebert/embeddings/embedding_transformation/Tensordot/Const_2", "shape": [1], "dtype": "int32"}, {"name": "StatefulPartitionedCall/mobilebert/embeddings/embedding_transformation/Tensordot/concat_1/axis", "shape": [], "dtype": "int32"}, {"name": "unknown_3", "shape": [2, 512], "dtype": "float32", "quantization": {"dtype": "uint8", "min": -1.1410288866828469, "scale": 0.00864415823244581, "original_dtype": "float32"}}, {"name": "StatefulPartitionedCall/mobilebert/strided_slice/stack", "shape": [1], "dtype": "int32"}, {"name": "StatefulPartitionedCall/mobilebert/strided_slice/stack_1", "shape": [1], "dtype": "int32"}, {"name": "StatefulPartitionedCall/mobilebert/strided_slice/stack_2", "shape": [1], "dtype": "int32"}, {"name": "StatefulPartitionedCall/mobilebert/Fill/dims/1", "shape": [], "dtype": "int32"}, {"name": "StatefulPartitionedCall/mobilebert/Fill/value", "shape": [], "dtype": "int32"}, {"name": "StatefulPartitionedCall/mobilebert/embeddings/Gather_2/axis", "shape": [], "dtype": "int32"}, {"name": "StatefulPartitionedCall/mobilebert/embeddings/LayerNorm/mul/ReadVariableOp", "shape": [512], "dtype": "float32", "quantization": {"dtype": "uint8", "min": 0.23172231018543243, "scale": 0.013731174083317027, "original_dtype": "float32"}}, {"name": "StatefulPartitionedCall/mobilebert/embeddings/LayerNorm/add/ReadVariableOp", "shape": [512], "dtype": "float32", "quantization": {"dtype": "uint8", "min": -0.8069770308101878, "scale": 0.003788624557794309, "original_dtype": "float32"}}, {"name": "StatefulPartitionedCall/mobilebert/encoder/layer_._0/output/bottleneck/LayerNorm/mul/ReadVariableOp", "shape": [512], "dtype": "float32", "quantization": {"dtype": "uint8", "min": 0.8398037552833557, "scale": 0.007316379687365364, "original_dtype": "float32"}}, {"name": "StatefulPartitionedCall/mobilebert/encoder/layer_._0/output/bottleneck/LayerNorm/add/ReadVariableOp", "shape": [512], "dtype": "float32", "quantization": {"dtype": "uint8", "min": -0.24188494565440158, "scale": 0.0012341068655836816, "original_dtype": "float32"}}, {"name": "StatefulPartitionedCall/mobilebert/encoder/layer_._1/output/bottleneck/LayerNorm/mul/ReadVariableOp", "shape": [512], "dtype": "float32", "quantization": {"dtype": "uint8", "min": 0.6583110690116882, "scale": 0.0025174606080148733, "original_dtype": "float32"}}, {"name": "StatefulPartitionedCall/mobilebert/encoder/layer_._1/output/bottleneck/LayerNorm/add/ReadVariableOp", "shape": [512], "dtype": "float32", "quantization": {"dtype": "uint8", "min": -0.30306548598934624, "scale": 0.0015077884875091853, "original_dtype": "float32"}}, {"name": "StatefulPartitionedCall/mobilebert/encoder/layer_._2/output/bottleneck/LayerNorm/mul/ReadVariableOp", "shape": [512], "dtype": "float32", "quantization": {"dtype": "uint8", "min": 0.5605272650718689, "scale": 0.003755385501711976, "original_dtype": "float32"}}, {"name": "StatefulPartitionedCall/mobilebert/encoder/layer_._2/output/bottleneck/LayerNorm/add/ReadVariableOp", "shape": [512], "dtype": "float32", "quantization": {"dtype": "uint8", "min": -0.18485532145874173, "scale": 0.0011135862738478417, "original_dtype": "float32"}}, {"name": "StatefulPartitionedCall/mobilebert/encoder/layer_._3/output/bottleneck/LayerNorm/mul/ReadVariableOp", "shape": [512], "dtype": "float32", "quantization": {"dtype": "uint8", "min": 0.13925498723983765, "scale": 0.004131231822219549, "original_dtype": "float32"}}, {"name": "StatefulPartitionedCall/mobilebert/encoder/layer_._3/output/bottleneck/LayerNorm/add/ReadVariableOp", "shape": [512], "dtype": "float32", "quantization": {"dtype": "uint8", "min": -0.24590448491713582, "scale": 0.0025615050512201648, "original_dtype": "float32"}}, {"name": "StatefulPartitionedCall/mobilebert/encoder/layer_._4/output/bottleneck/LayerNorm/mul/ReadVariableOp", "shape": [512], "dtype": "float32", "quantization": {"dtype": "uint8", "min": 0.4339736998081207, "scale": 0.006895950144412471, "original_dtype": "float32"}}, {"name": "StatefulPartitionedCall/mobilebert/encoder/layer_._4/output/bottleneck/LayerNorm/add/ReadVariableOp", "shape": [512], "dtype": "float32", "quantization": {"dtype": "uint8", "min": -0.2660955354279163, "scale": 0.0016630970964244768, "original_dtype": "float32"}}, {"name": "StatefulPartitionedCall/mobilebert/encoder/layer_._5/output/bottleneck/LayerNorm/mul/ReadVariableOp", "shape": [512], "dtype": "float32", "quantization": {"dtype": "uint8", "min": 0.4672883152961731, "scale": 0.003961795217850629, "original_dtype": "float32"}}, {"name": "StatefulPartitionedCall/mobilebert/encoder/layer_._5/output/bottleneck/LayerNorm/add/ReadVariableOp", "shape": [512], "dtype": "float32", "quantization": {"dtype": "uint8", "min": -0.5894605024188172, "scale": 0.00382766560012219, "original_dtype": "float32"}}, {"name": "StatefulPartitionedCall/mobilebert/encoder/layer_._6/output/bottleneck/LayerNorm/mul/ReadVariableOp", "shape": [512], "dtype": "float32", "quantization": {"dtype": "uint8", "min": 0.6917906999588013, "scale": 0.0021847930609011183, "original_dtype": "float32"}}, {"name": "StatefulPartitionedCall/mobilebert/encoder/layer_._6/output/bottleneck/LayerNorm/add/ReadVariableOp", "shape": [512], "dtype": "float32", "quantization": {"dtype": "uint8", "min": -0.15976543484949599, "scale": 0.0011922793645484774, "original_dtype": "float32"}}, {"name": "StatefulPartitionedCall/mobilebert/encoder/layer_._7/output/bottleneck/LayerNorm/mul/ReadVariableOp", "shape": [512], "dtype": "float32", "quantization": {"dtype": "uint8", "min": 0.6034022569656372, "scale": 0.0026553878597184726, "original_dtype": "float32"}}, {"name": "StatefulPartitionedCall/mobilebert/encoder/layer_._7/output/bottleneck/LayerNorm/add/ReadVariableOp", "shape": [512], "dtype": "float32", "quantization": {"dtype": "uint8", "min": -0.3533582444284476, "scale": 0.002371531841801662, "original_dtype": "float32"}}, {"name": "StatefulPartitionedCall/mobilebert/encoder/layer_._8/output/bottleneck/LayerNorm/mul/ReadVariableOp", "shape": [512], "dtype": "float32", "quantization": {"dtype": "uint8", "min": 0.04058624804019928, "scale": 0.0038929330952027267, "original_dtype": "float32"}}, {"name": "StatefulPartitionedCall/mobilebert/encoder/layer_._8/output/bottleneck/LayerNorm/add/ReadVariableOp", "shape": [512], "dtype": "float32", "quantization": {"dtype": "uint8", "min": -0.4190668405271044, "scale": 0.0026191677532944025, "original_dtype": "float32"}}, {"name": "StatefulPartitionedCall/mobilebert/encoder/layer_._9/output/bottleneck/LayerNorm/mul/ReadVariableOp", "shape": [512], "dtype": "float32", "quantization": {"dtype": "uint8", "min": 0.6640793085098267, "scale": 0.002253265941844267, "original_dtype": "float32"}}, {"name": "StatefulPartitionedCall/mobilebert/encoder/layer_._9/output/bottleneck/LayerNorm/add/ReadVariableOp", "shape": [512], "dtype": "float32", "quantization": {"dtype": "uint8", "min": -0.08343129905999874, "scale": 0.0007449223130357031, "original_dtype": "float32"}}, {"name": "StatefulPartitionedCall/mobilebert/encoder/layer_._10/output/bottleneck/LayerNorm/mul/ReadVariableOp", "shape": [512], "dtype": "float32", "quantization": {"dtype": "uint8", "min": 0.5851655006408691, "scale": 0.00232084872675877, "original_dtype": "float32"}}, {"name": "StatefulPartitionedCall/mobilebert/encoder/layer_._10/output/bottleneck/LayerNorm/add/ReadVariableOp", "shape": [512], "dtype": "float32", "quantization": {"dtype": "uint8", "min": -0.24326654509002085, "scale": 0.0019939880745083677, "original_dtype": "float32"}}, {"name": "StatefulPartitionedCall/mobilebert/encoder/layer_._11/output/bottleneck/LayerNorm/mul/ReadVariableOp", "shape": [512], "dtype": "float32", "quantization": {"dtype": "uint8", "min": 0.44097384810447693, "scale": 0.0029543087762944837, "original_dtype": "float32"}}, {"name": "StatefulPartitionedCall/mobilebert/encoder/layer_._11/output/bottleneck/LayerNorm/add/ReadVariableOp", "shape": [512], "dtype": "float32", "quantization": {"dtype": "uint8", "min": -0.11756872102326037, "scale": 0.002260936942755007, "original_dtype": "float32"}}, {"name": "StatefulPartitionedCall/mobilebert/encoder/layer_._12/output/bottleneck/LayerNorm/mul/ReadVariableOp", "shape": [512], "dtype": "float32", "quantization": {"dtype": "uint8", "min": 0.6775651574134827, "scale": 0.0021619691568262435, "original_dtype": "float32"}}, {"name": "StatefulPartitionedCall/mobilebert/encoder/layer_._12/output/bottleneck/LayerNorm/add/ReadVariableOp", "shape": [512], "dtype": "float32", "quantization": {"dtype": "uint8", "min": -0.3924135245528875, "scale": 0.002229622298595952, "original_dtype": "float32"}}, {"name": "StatefulPartitionedCall/mobilebert/encoder/layer_._13/output/bottleneck/LayerNorm/mul/ReadVariableOp", "shape": [512], "dtype": "float32", "quantization": {"dtype": "uint8", "min": 0.6474418044090271, "scale": 0.0018215677317451027, "original_dtype": "float32"}}, {"name": "StatefulPartitionedCall/mobilebert/encoder/layer_._13/output/bottleneck/LayerNorm/add/ReadVariableOp", "shape": [512], "dtype": "float32", "quantization": {"dtype": "uint8", "min": -0.12336321487730624, "scale": 0.0009004614224620894, "original_dtype": "float32"}}, {"name": "StatefulPartitionedCall/mobilebert/encoder/layer_._14/output/bottleneck/LayerNorm/mul/ReadVariableOp", "shape": [512], "dtype": "float32", "quantization": {"dtype": "uint8", "min": 0.46876007318496704, "scale": 0.0031633356038261863, "original_dtype": "float32"}}, {"name": "StatefulPartitionedCall/mobilebert/encoder/layer_._14/output/bottleneck/LayerNorm/add/ReadVariableOp", "shape": [512], "dtype": "float32", "quantization": {"dtype": "uint8", "min": -0.6618772057925953, "scale": 0.0031821019509259392, "original_dtype": "float32"}}, {"name": "StatefulPartitionedCall/mobilebert/encoder/layer_._15/output/bottleneck/LayerNorm/mul/ReadVariableOp", "shape": [512], "dtype": "float32", "quantization": {"dtype": "uint8", "min": 0.6795095205307007, "scale": 0.002137639008316339, "original_dtype": "float32"}}, {"name": "StatefulPartitionedCall/mobilebert/encoder/layer_._15/output/bottleneck/LayerNorm/add/ReadVariableOp", "shape": [512], "dtype": "float32", "quantization": {"dtype": "uint8", "min": -0.1801350630381528, "scale": 0.002688583030420191, "original_dtype": "float32"}}, {"name": "StatefulPartitionedCall/mobilebert/encoder/layer_._16/output/bottleneck/LayerNorm/mul/ReadVariableOp", "shape": [512], "dtype": "float32", "quantization": {"dtype": "uint8", "min": 0.6985569000244141, "scale": 0.001540366341085995, "original_dtype": "float32"}}, {"name": "StatefulPartitionedCall/mobilebert/encoder/layer_._16/output/bottleneck/LayerNorm/add/ReadVariableOp", "shape": [512], "dtype": "float32", "quantization": {"dtype": "uint8", "min": -0.22351447115926182, "scale": 0.001817190822433023, "original_dtype": "float32"}}, {"name": "StatefulPartitionedCall/mobilebert/encoder/layer_._17/output/bottleneck/LayerNorm/mul/ReadVariableOp", "shape": [512], "dtype": "float32", "quantization": {"dtype": "uint8", "min": 0.7173494696617126, "scale": 0.0016201975298862832, "original_dtype": "float32"}}, {"name": "StatefulPartitionedCall/mobilebert/encoder/layer_._17/output/bottleneck/LayerNorm/add/ReadVariableOp", "shape": [512], "dtype": "float32", "quantization": {"dtype": "uint8", "min": -0.49991940750795255, "scale": 0.0032046115865894394, "original_dtype": "float32"}}, {"name": "StatefulPartitionedCall/mobilebert/encoder/layer_._18/output/bottleneck/LayerNorm/mul/ReadVariableOp", "shape": [512], "dtype": "float32", "quantization": {"dtype": "uint8", "min": 0.7227138876914978, "scale": 0.0018888302877837536, "original_dtype": "float32"}}, {"name": "StatefulPartitionedCall/mobilebert/encoder/layer_._18/output/bottleneck/LayerNorm/add/ReadVariableOp", "shape": [512], "dtype": "float32", "quantization": {"dtype": "uint8", "min": -0.12700589614755967, "scale": 0.0015119749541376152, "original_dtype": "float32"}}, {"name": "StatefulPartitionedCall/mobilebert/encoder/layer_._19/output/bottleneck/LayerNorm/mul/ReadVariableOp", "shape": [512], "dtype": "float32", "quantization": {"dtype": "uint8", "min": 0.7440488934516907, "scale": 0.0011795368849062452, "original_dtype": "float32"}}, {"name": "StatefulPartitionedCall/mobilebert/encoder/layer_._19/output/bottleneck/LayerNorm/add/ReadVariableOp", "shape": [512], "dtype": "float32", "quantization": {"dtype": "uint8", "min": -0.18072378413349977, "scale": 0.001493584992838841, "original_dtype": "float32"}}, {"name": "StatefulPartitionedCall/mobilebert/encoder/layer_._20/output/bottleneck/LayerNorm/mul/ReadVariableOp", "shape": [512], "dtype": "float32", "quantization": {"dtype": "uint8", "min": 0.781830906867981, "scale": 0.001157986884023629, "original_dtype": "float32"}}, {"name": "StatefulPartitionedCall/mobilebert/encoder/layer_._20/output/bottleneck/LayerNorm/add/ReadVariableOp", "shape": [512], "dtype": "float32", "quantization": {"dtype": "uint8", "min": -0.10097931746174307, "scale": 0.0008857834865065182, "original_dtype": "float32"}}, {"name": "StatefulPartitionedCall/mobilebert/encoder/layer_._21/output/bottleneck/LayerNorm/mul/ReadVariableOp", "shape": [512], "dtype": "float32", "quantization": {"dtype": "uint8", "min": 0.77266526222229, "scale": 0.0011196477740418678, "original_dtype": "float32"}}, {"name": "StatefulPartitionedCall/mobilebert/encoder/layer_._21/output/bottleneck/LayerNorm/add/ReadVariableOp", "shape": [512], "dtype": "float32", "quantization": {"dtype": "uint8", "min": -0.325639923881082, "scale": 0.002430148685679716, "original_dtype": "float32"}}, {"name": "StatefulPartitionedCall/mobilebert/encoder/layer_._22/output/bottleneck/LayerNorm/mul/ReadVariableOp", "shape": [512], "dtype": "float32", "quantization": {"dtype": "uint8", "min": 0.8339492678642273, "scale": 0.0015068500649695303, "original_dtype": "float32"}}, {"name": "StatefulPartitionedCall/mobilebert/encoder/layer_._22/output/bottleneck/LayerNorm/add/ReadVariableOp", "shape": [512], "dtype": "float32", "quantization": {"dtype": "uint8", "min": -0.4464164481443517, "scale": 0.0037201370678695976, "original_dtype": "float32"}}, {"name": "StatefulPartitionedCall/mobilebert/encoder/layer_._23/output/bottleneck/LayerNorm/mul/ReadVariableOp", "shape": [512], "dtype": "float32", "quantization": {"dtype": "uint8", "min": 0.059783902019262314, "scale": 0.006120993240791209, "original_dtype": "float32"}}, {"name": "StatefulPartitionedCall/mobilebert/encoder/layer_._23/output/bottleneck/LayerNorm/add/ReadVariableOp", "shape": [512], "dtype": "float32", "quantization": {"dtype": "uint8", "min": -0.9778700716355267, "scale": 0.00814891726362939, "original_dtype": "float32"}}, {"name": "StatefulPartitionedCall/predictions___cls/predictions/transform/dense/Tensordot/free", "shape": [2], "dtype": "int32"}, {"name": "StatefulPartitionedCall/predictions___cls/predictions/transform/dense/Tensordot/GatherV2/axis", "shape": [], "dtype": "int32"}, {"name": "StatefulPartitionedCall/predictions___cls/predictions/transform/dense/Tensordot/Const_2", "shape": [1], "dtype": "int32"}, {"name": "StatefulPartitionedCall/predictions___cls/predictions/transform/dense/Tensordot/concat_1/axis", "shape": [], "dtype": "int32"}, {"name": "StatefulPartitionedCall/predictions___cls/predictions/transform/dense/BiasAdd/ReadVariableOp", "shape": [512], "dtype": "float32", "quantization": {"dtype": "uint8", "min": -3.169500462214152, "scale": 0.07370931307474772, "original_dtype": "float32"}}, {"name": "StatefulPartitionedCall/predictions___cls/predictions/transform/LayerNorm/moments/mean/reduction_indices", "shape": [1], "dtype": "int32"}, {"name": "StatefulPartitionedCall/predictions___cls/predictions/transform/LayerNorm/moments/variance/reduction_indices", "shape": [1], "dtype": "int32"}, {"name": "StatefulPartitionedCall/predictions___cls/predictions/transform/LayerNorm/batchnorm/add/y", "shape": [], "dtype": "float32", "quantization": {"dtype": "uint8", "min": 9.999999960041972e-13, "scale": 1.0, "original_dtype": "float32"}}, {"name": "StatefulPartitionedCall/predictions___cls/predictions/transform/LayerNorm/batchnorm/mul/ReadVariableOp", "shape": [512], "dtype": "float32", "quantization": {"dtype": "uint8", "min": 0.2937891483306885, "scale": 0.009864454643399108, "original_dtype": "float32"}}, {"name": "StatefulPartitionedCall/predictions___cls/predictions/concat", "shape": [512, 30522], "dtype": "float32", "quantization": {"dtype": "uint8", "min": -1.402991501490275, "scale": 0.011789844550338446, "original_dtype": "float32"}}, {"name": "StatefulPartitionedCall/predictions___cls/predictions/add/ReadVariableOp", "shape": [30522], "dtype": "float32", "quantization": {"dtype": "uint8", "min": -7.691544970344094, "scale": 0.05196989844827091, "original_dtype": "float32"}}]}]}